{"format": "graph-model", "generatedBy": "2.19.0", "convertedBy": "TensorFlow.js Converter v4.22.0", "signature": {"outputs": {"Identity:0": {"name": "Identity:0"}}}, "modelTopology": {"node": [{"name": "ConstantFolding/model_129/tf.math.divide_1/truediv_recip", "op": "Const", "attr": {"value": {"tensor": {"dtype": "DT_FLOAT", "tensorShape": {}}}, "dtype": {"type": "DT_FLOAT"}}}, {"name": "model_129/tf.strided_slice_35/ones_like/tensor", "op": "Const", "attr": {"value": {"tensor": {"dtype": "DT_INT64", "tensorShape": {"dim": [{"size": "3"}]}}}, "dtype": {"type": "DT_INT64"}}}, {"name": "model_129/tf.strided_slice_35/StridedSlice/end", "op": "Const", "attr": {"value": {"tensor": {"dtype": "DT_INT64", "tensorShape": {"dim": [{"size": "3"}]}}}, "dtype": {"type": "DT_INT64"}}}, {"name": "model_129/tf.strided_slice_35/ones_like", "op": "Const", "attr": {"value": {"tensor": {"dtype": "DT_INT64", "tensorShape": {"dim": [{"size": "3"}]}}}, "dtype": {"type": "DT_INT64"}}}, {"name": "model_129/tf.math.add_204/Add/y", "op": "Const", "attr": {"value": {"tensor": {"dtype": "DT_FLOAT", "tensorShape": {"dim": [{"size": "1"}, {"size": "2"}, {"size": "21504"}]}}}, "dtype": {"type": "DT_FLOAT"}}}, {"name": "model_129/49248", "op": "Const", "attr": {"value": {"tensor": {"dtype": "DT_FLOAT", "tensorShape": {"dim": [{"size": "1"}, {"size": "2"}, {"size": "21504"}]}}}, "dtype": {"type": "DT_FLOAT"}}}, {"name": "model_129/tf.nn.convolution_140/convolution/filter", "op": "Const", "attr": {"value": {"tensor": {"dtype": "DT_FLOAT", "tensorShape": {"dim": [{"size": "3"}, {"size": "3"}, {"size": "64"}, {"size": "64"}]}}}, "dtype": {"type": "DT_FLOAT"}}}, {"name": "model_129/tf.math.add_165/Add/y", "op": "Const", "attr": {"value": {"tensor": {"dtype": "DT_FLOAT", "tensorShape": {"dim": [{"size": "64"}]}}}, "dtype": {"type": "DT_FLOAT"}}}, {"name": "model_129/tf.nn.convolution_142/convolution/filter", "op": "Const", "attr": {"value": {"tensor": {"dtype": "DT_FLOAT", "tensorShape": {"dim": [{"size": "3"}, {"size": "3"}, {"size": "64"}, {"size": "64"}]}}}, "dtype": {"type": "DT_FLOAT"}}}, {"name": "model_129/tf.math.add_167/Add/y", "op": "Const", "attr": {"value": {"tensor": {"dtype": "DT_FLOAT", "tensorShape": {"dim": [{"size": "64"}]}}}, "dtype": {"type": "DT_FLOAT"}}}, {"name": "model_129/tf.nn.convolution_145/convolution/filter", "op": "Const", "attr": {"value": {"tensor": {"dtype": "DT_FLOAT", "tensorShape": {"dim": [{"size": "1"}, {"size": "1"}, {"size": "64"}, {"size": "64"}]}}}, "dtype": {"type": "DT_FLOAT"}}}, {"name": "model_129/tf.math.add_170/Add/y", "op": "Const", "attr": {"value": {"tensor": {"dtype": "DT_FLOAT", "tensorShape": {"dim": [{"size": "64"}]}}}, "dtype": {"type": "DT_FLOAT"}}}, {"name": "model_129/tf.compat.v1.transpose_221/transpose/perm", "op": "Const", "attr": {"value": {"tensor": {"dtype": "DT_INT32", "tensorShape": {"dim": [{"size": "4"}]}}}, "dtype": {"type": "DT_INT32"}}}, {"name": "model_129/tf.reshape_26/Reshape/shape", "op": "Const", "attr": {"value": {"tensor": {"dtype": "DT_INT32", "tensorShape": {"dim": [{"size": "3"}]}}}, "dtype": {"type": "DT_INT32"}}}, {"name": "model_129/tf.nn.convolution_155/convolution/filter", "op": "Const", "attr": {"value": {"tensor": {"dtype": "DT_FLOAT", "tensorShape": {"dim": [{"size": "3"}, {"size": "3"}, {"size": "128"}, {"size": "64"}]}}}, "dtype": {"type": "DT_FLOAT"}}}, {"name": "model_129/tf.math.add_180/Add/y", "op": "Const", "attr": {"value": {"tensor": {"dtype": "DT_FLOAT", "tensorShape": {"dim": [{"size": "64"}]}}}, "dtype": {"type": "DT_FLOAT"}}}, {"name": "model_129/tf.nn.convolution_159/convolution/filter", "op": "Const", "attr": {"value": {"tensor": {"dtype": "DT_FLOAT", "tensorShape": {"dim": [{"size": "3"}, {"size": "3"}, {"size": "64"}, {"size": "64"}]}}}, "dtype": {"type": "DT_FLOAT"}}}, {"name": "model_129/tf.math.add_184/Add/y", "op": "Const", "attr": {"value": {"tensor": {"dtype": "DT_FLOAT", "tensorShape": {"dim": [{"size": "64"}]}}}, "dtype": {"type": "DT_FLOAT"}}}, {"name": "model_129/tf.nn.convolution_166/convolution/filter", "op": "Const", "attr": {"value": {"tensor": {"dtype": "DT_FLOAT", "tensorShape": {"dim": [{"size": "1"}, {"size": "1"}, {"size": "64"}, {"size": "64"}]}}}, "dtype": {"type": "DT_FLOAT"}}}, {"name": "model_129/tf.math.add_191/Add/y", "op": "Const", "attr": {"value": {"tensor": {"dtype": "DT_FLOAT", "tensorShape": {"dim": [{"size": "64"}]}}}, "dtype": {"type": "DT_FLOAT"}}}, {"name": "model_129/tf.compat.v1.transpose_258/transpose/perm", "op": "Const", "attr": {"value": {"tensor": {"dtype": "DT_INT32", "tensorShape": {"dim": [{"size": "4"}]}}}, "dtype": {"type": "DT_INT32"}}}, {"name": "model_129/tf.reshape_32/Reshape/shape", "op": "Const", "attr": {"value": {"tensor": {"dtype": "DT_INT32", "tensorShape": {"dim": [{"size": "3"}]}}}, "dtype": {"type": "DT_INT32"}}}, {"name": "model_129/tf.nn.convolution_173/convolution/filter", "op": "Const", "attr": {"value": {"tensor": {"dtype": "DT_FLOAT", "tensorShape": {"dim": [{"size": "3"}, {"size": "3"}, {"size": "256"}, {"size": "64"}]}}}, "dtype": {"type": "DT_FLOAT"}}}, {"name": "model_129/tf.math.add_198/Add/y", "op": "Const", "attr": {"value": {"tensor": {"dtype": "DT_FLOAT", "tensorShape": {"dim": [{"size": "64"}]}}}, "dtype": {"type": "DT_FLOAT"}}}, {"name": "model_129/tf.nn.convolution_175/convolution/filter", "op": "Const", "attr": {"value": {"tensor": {"dtype": "DT_FLOAT", "tensorShape": {"dim": [{"size": "3"}, {"size": "3"}, {"size": "64"}, {"size": "64"}]}}}, "dtype": {"type": "DT_FLOAT"}}}, {"name": "model_129/tf.math.add_200/Add/y", "op": "Const", "attr": {"value": {"tensor": {"dtype": "DT_FLOAT", "tensorShape": {"dim": [{"size": "64"}]}}}, "dtype": {"type": "DT_FLOAT"}}}, {"name": "model_129/tf.nn.convolution_177/convolution/filter", "op": "Const", "attr": {"value": {"tensor": {"dtype": "DT_FLOAT", "tensorShape": {"dim": [{"size": "1"}, {"size": "1"}, {"size": "64"}, {"size": "64"}]}}}, "dtype": {"type": "DT_FLOAT"}}}, {"name": "model_129/tf.math.add_202/Add/y", "op": "Const", "attr": {"value": {"tensor": {"dtype": "DT_FLOAT", "tensorShape": {"dim": [{"size": "64"}]}}}, "dtype": {"type": "DT_FLOAT"}}}, {"name": "model_129/tf.compat.v1.transpose_275/transpose/perm", "op": "Const", "attr": {"value": {"tensor": {"dtype": "DT_INT32", "tensorShape": {"dim": [{"size": "4"}]}}}, "dtype": {"type": "DT_INT32"}}}, {"name": "model_129/tf.reshape_38/Reshape/shape", "op": "Const", "attr": {"value": {"tensor": {"dtype": "DT_INT32", "tensorShape": {"dim": [{"size": "3"}]}}}, "dtype": {"type": "DT_INT32"}}}, {"name": "model_129/tf.concat_41/concat/axis", "op": "Const", "attr": {"value": {"tensor": {"dtype": "DT_INT32", "tensorShape": {}}}, "dtype": {"type": "DT_INT32"}}}, {"name": "model_129/tf.reshape_44/Reshape/shape", "op": "Const", "attr": {"value": {"tensor": {"dtype": "DT_INT32", "tensorShape": {"dim": [{"size": "4"}]}}}, "dtype": {"type": "DT_INT32"}}}, {"name": "model_129/tf.compat.v1.transpose_287/transpose/perm", "op": "Const", "attr": {"value": {"tensor": {"dtype": "DT_INT32", "tensorShape": {"dim": [{"size": "4"}]}}}, "dtype": {"type": "DT_INT32"}}}, {"name": "model_129/tf.compat.v1.transpose_288/transpose/perm", "op": "Const", "attr": {"value": {"tensor": {"dtype": "DT_INT32", "tensorShape": {"dim": [{"size": "4"}]}}}, "dtype": {"type": "DT_INT32"}}}, {"name": "model_129/tf.nn.convolution_179/convolution/filter", "op": "Const", "attr": {"value": {"tensor": {"dtype": "DT_FLOAT", "tensorShape": {"dim": [{"size": "1"}, {"size": "1"}, {"size": "16"}, {"size": "1"}]}}}, "dtype": {"type": "DT_FLOAT"}}}, {"name": "model_129/tf.compat.v1.transpose_293/transpose/perm", "op": "Const", "attr": {"value": {"tensor": {"dtype": "DT_INT32", "tensorShape": {"dim": [{"size": "4"}]}}}, "dtype": {"type": "DT_INT32"}}}, {"name": "model_129/tf.reshape_47/Reshape/shape", "op": "Const", "attr": {"value": {"tensor": {"dtype": "DT_INT32", "tensorShape": {"dim": [{"size": "3"}]}}}, "dtype": {"type": "DT_INT32"}}}, {"name": "model_129/tf.strided_slice_34/ones_like/tensor", "op": "Const", "attr": {"value": {"tensor": {"dtype": "DT_INT64", "tensorShape": {"dim": [{"size": "3"}]}}}, "dtype": {"type": "DT_INT64"}}}, {"name": "model_129/tf.strided_slice_34/StridedSlice/end", "op": "Const", "attr": {"value": {"tensor": {"dtype": "DT_INT64", "tensorShape": {"dim": [{"size": "3"}]}}}, "dtype": {"type": "DT_INT64"}}}, {"name": "model_129/tf.strided_slice_34/ones_like", "op": "Const", "attr": {"value": {"tensor": {"dtype": "DT_INT64", "tensorShape": {"dim": [{"size": "3"}]}}}, "dtype": {"type": "DT_INT64"}}}, {"name": "model_129/tf.concat_46/concat/axis", "op": "Const", "attr": {"value": {"tensor": {"dtype": "DT_INT32", "tensorShape": {}}}, "dtype": {"type": "DT_INT32"}}}, {"name": "model_129/tf.math.multiply_497/Mul/y", "op": "Const", "attr": {"value": {"tensor": {"dtype": "DT_FLOAT", "tensorShape": {"dim": [{"size": "1"}, {"size": "1"}, {"size": "21504"}]}}}, "dtype": {"type": "DT_FLOAT"}}}, {"name": "model_129/tf.nn.convolution_141/convolution/filter", "op": "Const", "attr": {"value": {"tensor": {"dtype": "DT_FLOAT", "tensorShape": {"dim": [{"size": "3"}, {"size": "3"}, {"size": "64"}, {"size": "64"}]}}}, "dtype": {"type": "DT_FLOAT"}}}, {"name": "model_129/tf.math.add_166/Add/y", "op": "Const", "attr": {"value": {"tensor": {"dtype": "DT_FLOAT", "tensorShape": {"dim": [{"size": "64"}]}}}, "dtype": {"type": "DT_FLOAT"}}}, {"name": "model_129/tf.nn.convolution_143/convolution/filter", "op": "Const", "attr": {"value": {"tensor": {"dtype": "DT_FLOAT", "tensorShape": {"dim": [{"size": "3"}, {"size": "3"}, {"size": "64"}, {"size": "64"}]}}}, "dtype": {"type": "DT_FLOAT"}}}, {"name": "model_129/tf.math.add_168/Add/y", "op": "Const", "attr": {"value": {"tensor": {"dtype": "DT_FLOAT", "tensorShape": {"dim": [{"size": "64"}]}}}, "dtype": {"type": "DT_FLOAT"}}}, {"name": "model_129/tf.nn.convolution_146/convolution/filter", "op": "Const", "attr": {"value": {"tensor": {"dtype": "DT_FLOAT", "tensorShape": {"dim": [{"size": "1"}, {"size": "1"}, {"size": "64"}, {"size": "9"}]}}}, "dtype": {"type": "DT_FLOAT"}}}, {"name": "model_129/tf.math.add_171/Add/y", "op": "Const", "attr": {"value": {"tensor": {"dtype": "DT_FLOAT", "tensorShape": {"dim": [{"size": "9"}]}}}, "dtype": {"type": "DT_FLOAT"}}}, {"name": "model_129/tf.compat.v1.transpose_226/transpose/perm", "op": "Const", "attr": {"value": {"tensor": {"dtype": "DT_INT32", "tensorShape": {"dim": [{"size": "4"}]}}}, "dtype": {"type": "DT_INT32"}}}, {"name": "model_129/tf.reshape_29/Reshape/shape", "op": "Const", "attr": {"value": {"tensor": {"dtype": "DT_INT32", "tensorShape": {"dim": [{"size": "3"}]}}}, "dtype": {"type": "DT_INT32"}}}, {"name": "model_129/tf.nn.convolution_156/convolution/filter", "op": "Const", "attr": {"value": {"tensor": {"dtype": "DT_FLOAT", "tensorShape": {"dim": [{"size": "3"}, {"size": "3"}, {"size": "128"}, {"size": "64"}]}}}, "dtype": {"type": "DT_FLOAT"}}}, {"name": "model_129/tf.math.add_181/Add/y", "op": "Const", "attr": {"value": {"tensor": {"dtype": "DT_FLOAT", "tensorShape": {"dim": [{"size": "64"}]}}}, "dtype": {"type": "DT_FLOAT"}}}, {"name": "model_129/tf.nn.convolution_162/convolution/filter", "op": "Const", "attr": {"value": {"tensor": {"dtype": "DT_FLOAT", "tensorShape": {"dim": [{"size": "3"}, {"size": "3"}, {"size": "64"}, {"size": "64"}]}}}, "dtype": {"type": "DT_FLOAT"}}}, {"name": "model_129/tf.math.add_187/Add/y", "op": "Const", "attr": {"value": {"tensor": {"dtype": "DT_FLOAT", "tensorShape": {"dim": [{"size": "64"}]}}}, "dtype": {"type": "DT_FLOAT"}}}, {"name": "model_129/tf.nn.convolution_169/convolution/filter", "op": "Const", "attr": {"value": {"tensor": {"dtype": "DT_FLOAT", "tensorShape": {"dim": [{"size": "1"}, {"size": "1"}, {"size": "64"}, {"size": "9"}]}}}, "dtype": {"type": "DT_FLOAT"}}}, {"name": "model_129/tf.math.add_194/Add/y", "op": "Const", "attr": {"value": {"tensor": {"dtype": "DT_FLOAT", "tensorShape": {"dim": [{"size": "9"}]}}}, "dtype": {"type": "DT_FLOAT"}}}, {"name": "model_129/tf.compat.v1.transpose_263/transpose/perm", "op": "Const", "attr": {"value": {"tensor": {"dtype": "DT_INT32", "tensorShape": {"dim": [{"size": "4"}]}}}, "dtype": {"type": "DT_INT32"}}}, {"name": "model_129/tf.reshape_35/Reshape/shape", "op": "Const", "attr": {"value": {"tensor": {"dtype": "DT_INT32", "tensorShape": {"dim": [{"size": "3"}]}}}, "dtype": {"type": "DT_INT32"}}}, {"name": "model_129/tf.strided_slice_32/ones_like/tensor", "op": "Const", "attr": {"value": {"tensor": {"dtype": "DT_INT64", "tensorShape": {"dim": [{"size": "4"}]}}}, "dtype": {"type": "DT_INT64"}}}, {"name": "model_129/tf.strided_slice_32/StridedSlice/end", "op": "Const", "attr": {"value": {"tensor": {"dtype": "DT_INT64", "tensorShape": {"dim": [{"size": "4"}]}}}, "dtype": {"type": "DT_INT64"}}}, {"name": "model_129/tf.strided_slice_32/ones_like", "op": "Const", "attr": {"value": {"tensor": {"dtype": "DT_INT64", "tensorShape": {"dim": [{"size": "4"}]}}}, "dtype": {"type": "DT_INT64"}}}, {"name": "model_129/tf.strided_slice_30/ones_like/tensor", "op": "Const", "attr": {"value": {"tensor": {"dtype": "DT_INT64", "tensorShape": {"dim": [{"size": "4"}]}}}, "dtype": {"type": "DT_INT64"}}}, {"name": "model_129/tf.strided_slice_30/StridedSlice/end", "op": "Const", "attr": {"value": {"tensor": {"dtype": "DT_INT64", "tensorShape": {"dim": [{"size": "4"}]}}}, "dtype": {"type": "DT_INT64"}}}, {"name": "model_129/tf.strided_slice_30/ones_like", "op": "Const", "attr": {"value": {"tensor": {"dtype": "DT_INT64", "tensorShape": {"dim": [{"size": "4"}]}}}, "dtype": {"type": "DT_INT64"}}}, {"name": "model_129/tf.strided_slice_28/ones_like/tensor", "op": "Const", "attr": {"value": {"tensor": {"dtype": "DT_INT64", "tensorShape": {"dim": [{"size": "4"}]}}}, "dtype": {"type": "DT_INT64"}}}, {"name": "model_129/tf.strided_slice_28/StridedSlice/end", "op": "Const", "attr": {"value": {"tensor": {"dtype": "DT_INT64", "tensorShape": {"dim": [{"size": "4"}]}}}, "dtype": {"type": "DT_INT64"}}}, {"name": "model_129/tf.strided_slice_28/ones_like", "op": "Const", "attr": {"value": {"tensor": {"dtype": "DT_INT64", "tensorShape": {"dim": [{"size": "4"}]}}}, "dtype": {"type": "DT_INT64"}}}, {"name": "model_129/tf.image.resize_3/resize/size", "op": "Const", "attr": {"value": {"tensor": {"dtype": "DT_INT32", "tensorShape": {"dim": [{"size": "2"}]}}}, "dtype": {"type": "DT_INT32"}}}, {"name": "model_129/tf.concat_33/concat/axis", "op": "Const", "attr": {"value": {"tensor": {"dtype": "DT_INT32", "tensorShape": {}}}, "dtype": {"type": "DT_INT32"}}}, {"name": "model_129/tf.nn.convolution_135/convolution/filter", "op": "Const", "attr": {"value": {"tensor": {"dtype": "DT_FLOAT", "tensorShape": {"dim": [{"size": "1"}, {"size": "1"}, {"size": "192"}, {"size": "64"}]}}}, "dtype": {"type": "DT_FLOAT"}}}, {"name": "model_129/tf.math.add_160/Add/y", "op": "Const", "attr": {"value": {"tensor": {"dtype": "DT_FLOAT", "tensorShape": {"dim": [{"size": "64"}]}}}, "dtype": {"type": "DT_FLOAT"}}}, {"name": "model_129/tf.strided_slice_29/ones_like/tensor", "op": "Const", "attr": {"value": {"tensor": {"dtype": "DT_INT64", "tensorShape": {"dim": [{"size": "4"}]}}}, "dtype": {"type": "DT_INT64"}}}, {"name": "model_129/tf.strided_slice_29/StridedSlice/end", "op": "Const", "attr": {"value": {"tensor": {"dtype": "DT_INT64", "tensorShape": {"dim": [{"size": "4"}]}}}, "dtype": {"type": "DT_INT64"}}}, {"name": "model_129/tf.strided_slice_29/ones_like", "op": "Const", "attr": {"value": {"tensor": {"dtype": "DT_INT64", "tensorShape": {"dim": [{"size": "4"}]}}}, "dtype": {"type": "DT_INT64"}}}, {"name": "model_129/tf.nn.convolution_136/convolution/filter", "op": "Const", "attr": {"value": {"tensor": {"dtype": "DT_FLOAT", "tensorShape": {"dim": [{"size": "3"}, {"size": "3"}, {"size": "32"}, {"size": "32"}]}}}, "dtype": {"type": "DT_FLOAT"}}}, {"name": "model_129/tf.math.add_161/Add/y", "op": "Const", "attr": {"value": {"tensor": {"dtype": "DT_FLOAT", "tensorShape": {"dim": [{"size": "32"}]}}}, "dtype": {"type": "DT_FLOAT"}}}, {"name": "model_129/tf.nn.convolution_137/convolution/filter", "op": "Const", "attr": {"value": {"tensor": {"dtype": "DT_FLOAT", "tensorShape": {"dim": [{"size": "3"}, {"size": "3"}, {"size": "32"}, {"size": "32"}]}}}, "dtype": {"type": "DT_FLOAT"}}}, {"name": "model_129/tf.math.add_162/Add/y", "op": "Const", "attr": {"value": {"tensor": {"dtype": "DT_FLOAT", "tensorShape": {"dim": [{"size": "32"}]}}}, "dtype": {"type": "DT_FLOAT"}}}, {"name": "model_129/tf.concat_34/concat/axis", "op": "Const", "attr": {"value": {"tensor": {"dtype": "DT_INT32", "tensorShape": {}}}, "dtype": {"type": "DT_INT32"}}}, {"name": "model_129/tf.nn.convolution_138/convolution/filter", "op": "Const", "attr": {"value": {"tensor": {"dtype": "DT_FLOAT", "tensorShape": {"dim": [{"size": "1"}, {"size": "1"}, {"size": "96"}, {"size": "64"}]}}}, "dtype": {"type": "DT_FLOAT"}}}, {"name": "model_129/tf.math.add_163/Add/y", "op": "Const", "attr": {"value": {"tensor": {"dtype": "DT_FLOAT", "tensorShape": {"dim": [{"size": "64"}]}}}, "dtype": {"type": "DT_FLOAT"}}}, {"name": "model_129/tf.compat.v1.pad_12/Pad/paddings", "op": "Const", "attr": {"value": {"tensor": {"dtype": "DT_INT32", "tensorShape": {"dim": [{"size": "4"}, {"size": "2"}]}}}, "dtype": {"type": "DT_INT32"}}}, {"name": "model_129/tf.nn.convolution_139/convolution/filter", "op": "Const", "attr": {"value": {"tensor": {"dtype": "DT_FLOAT", "tensorShape": {"dim": [{"size": "3"}, {"size": "3"}, {"size": "64"}, {"size": "64"}]}}}, "dtype": {"type": "DT_FLOAT"}}}, {"name": "model_129/tf.math.add_164/Add/y", "op": "Const", "attr": {"value": {"tensor": {"dtype": "DT_FLOAT", "tensorShape": {"dim": [{"size": "64"}]}}}, "dtype": {"type": "DT_FLOAT"}}}, {"name": "model_129/tf.strided_slice_26/ones_like/tensor", "op": "Const", "attr": {"value": {"tensor": {"dtype": "DT_INT64", "tensorShape": {"dim": [{"size": "4"}]}}}, "dtype": {"type": "DT_INT64"}}}, {"name": "model_129/tf.strided_slice_26/StridedSlice/end", "op": "Const", "attr": {"value": {"tensor": {"dtype": "DT_INT64", "tensorShape": {"dim": [{"size": "4"}]}}}, "dtype": {"type": "DT_INT64"}}}, {"name": "model_129/tf.strided_slice_26/ones_like", "op": "Const", "attr": {"value": {"tensor": {"dtype": "DT_INT64", "tensorShape": {"dim": [{"size": "4"}]}}}, "dtype": {"type": "DT_INT64"}}}, {"name": "model_129/tf.image.resize_2/resize/size", "op": "Const", "attr": {"value": {"tensor": {"dtype": "DT_INT32", "tensorShape": {"dim": [{"size": "2"}]}}}, "dtype": {"type": "DT_INT32"}}}, {"name": "model_129/tf.concat_29/concat/axis", "op": "Const", "attr": {"value": {"tensor": {"dtype": "DT_INT32", "tensorShape": {}}}, "dtype": {"type": "DT_INT32"}}}, {"name": "model_129/tf.nn.convolution_127/convolution/filter", "op": "Const", "attr": {"value": {"tensor": {"dtype": "DT_FLOAT", "tensorShape": {"dim": [{"size": "1"}, {"size": "1"}, {"size": "384"}, {"size": "128"}]}}}, "dtype": {"type": "DT_FLOAT"}}}, {"name": "model_129/tf.math.add_152/Add/y", "op": "Const", "attr": {"value": {"tensor": {"dtype": "DT_FLOAT", "tensorShape": {"dim": [{"size": "128"}]}}}, "dtype": {"type": "DT_FLOAT"}}}, {"name": "model_129/tf.strided_slice_27/ones_like/tensor", "op": "Const", "attr": {"value": {"tensor": {"dtype": "DT_INT64", "tensorShape": {"dim": [{"size": "4"}]}}}, "dtype": {"type": "DT_INT64"}}}, {"name": "model_129/tf.strided_slice_27/StridedSlice/end", "op": "Const", "attr": {"value": {"tensor": {"dtype": "DT_INT64", "tensorShape": {"dim": [{"size": "4"}]}}}, "dtype": {"type": "DT_INT64"}}}, {"name": "model_129/tf.strided_slice_27/ones_like", "op": "Const", "attr": {"value": {"tensor": {"dtype": "DT_INT64", "tensorShape": {"dim": [{"size": "4"}]}}}, "dtype": {"type": "DT_INT64"}}}, {"name": "model_129/tf.nn.convolution_130/convolution/filter", "op": "Const", "attr": {"value": {"tensor": {"dtype": "DT_FLOAT", "tensorShape": {"dim": [{"size": "3"}, {"size": "3"}, {"size": "64"}, {"size": "64"}]}}}, "dtype": {"type": "DT_FLOAT"}}}, {"name": "model_129/tf.math.add_155/Add/y", "op": "Const", "attr": {"value": {"tensor": {"dtype": "DT_FLOAT", "tensorShape": {"dim": [{"size": "64"}]}}}, "dtype": {"type": "DT_FLOAT"}}}, {"name": "model_129/tf.nn.convolution_133/convolution/filter", "op": "Const", "attr": {"value": {"tensor": {"dtype": "DT_FLOAT", "tensorShape": {"dim": [{"size": "3"}, {"size": "3"}, {"size": "64"}, {"size": "64"}]}}}, "dtype": {"type": "DT_FLOAT"}}}, {"name": "model_129/tf.math.add_158/Add/y", "op": "Const", "attr": {"value": {"tensor": {"dtype": "DT_FLOAT", "tensorShape": {"dim": [{"size": "64"}]}}}, "dtype": {"type": "DT_FLOAT"}}}, {"name": "model_129/tf.concat_30/concat/axis", "op": "Const", "attr": {"value": {"tensor": {"dtype": "DT_INT32", "tensorShape": {}}}, "dtype": {"type": "DT_INT32"}}}, {"name": "model_129/tf.nn.convolution_134/convolution/filter", "op": "Const", "attr": {"value": {"tensor": {"dtype": "DT_FLOAT", "tensorShape": {"dim": [{"size": "1"}, {"size": "1"}, {"size": "192"}, {"size": "128"}]}}}, "dtype": {"type": "DT_FLOAT"}}}, {"name": "model_129/tf.math.add_159/Add/y", "op": "Const", "attr": {"value": {"tensor": {"dtype": "DT_FLOAT", "tensorShape": {"dim": [{"size": "128"}]}}}, "dtype": {"type": "DT_FLOAT"}}}, {"name": "model_129/tf.concat_37/concat/axis", "op": "Const", "attr": {"value": {"tensor": {"dtype": "DT_INT32", "tensorShape": {}}}, "dtype": {"type": "DT_INT32"}}}, {"name": "model_129/tf.nn.convolution_144/convolution/filter", "op": "Const", "attr": {"value": {"tensor": {"dtype": "DT_FLOAT", "tensorShape": {"dim": [{"size": "1"}, {"size": "1"}, {"size": "192"}, {"size": "128"}]}}}, "dtype": {"type": "DT_FLOAT"}}}, {"name": "model_129/tf.math.add_169/Add/y", "op": "Const", "attr": {"value": {"tensor": {"dtype": "DT_FLOAT", "tensorShape": {"dim": [{"size": "128"}]}}}, "dtype": {"type": "DT_FLOAT"}}}, {"name": "model_129/tf.strided_slice_31/ones_like/tensor", "op": "Const", "attr": {"value": {"tensor": {"dtype": "DT_INT64", "tensorShape": {"dim": [{"size": "4"}]}}}, "dtype": {"type": "DT_INT64"}}}, {"name": "model_129/tf.strided_slice_31/StridedSlice/end", "op": "Const", "attr": {"value": {"tensor": {"dtype": "DT_INT64", "tensorShape": {"dim": [{"size": "4"}]}}}, "dtype": {"type": "DT_INT64"}}}, {"name": "model_129/tf.strided_slice_31/ones_like", "op": "Const", "attr": {"value": {"tensor": {"dtype": "DT_INT64", "tensorShape": {"dim": [{"size": "4"}]}}}, "dtype": {"type": "DT_INT64"}}}, {"name": "model_129/tf.nn.convolution_149/convolution/filter", "op": "Const", "attr": {"value": {"tensor": {"dtype": "DT_FLOAT", "tensorShape": {"dim": [{"size": "3"}, {"size": "3"}, {"size": "64"}, {"size": "64"}]}}}, "dtype": {"type": "DT_FLOAT"}}}, {"name": "model_129/tf.math.add_174/Add/y", "op": "Const", "attr": {"value": {"tensor": {"dtype": "DT_FLOAT", "tensorShape": {"dim": [{"size": "64"}]}}}, "dtype": {"type": "DT_FLOAT"}}}, {"name": "model_129/tf.nn.convolution_152/convolution/filter", "op": "Const", "attr": {"value": {"tensor": {"dtype": "DT_FLOAT", "tensorShape": {"dim": [{"size": "3"}, {"size": "3"}, {"size": "64"}, {"size": "64"}]}}}, "dtype": {"type": "DT_FLOAT"}}}, {"name": "model_129/tf.math.add_177/Add/y", "op": "Const", "attr": {"value": {"tensor": {"dtype": "DT_FLOAT", "tensorShape": {"dim": [{"size": "64"}]}}}, "dtype": {"type": "DT_FLOAT"}}}, {"name": "model_129/tf.concat_38/concat/axis", "op": "Const", "attr": {"value": {"tensor": {"dtype": "DT_INT32", "tensorShape": {}}}, "dtype": {"type": "DT_INT32"}}}, {"name": "model_129/tf.nn.convolution_153/convolution/filter", "op": "Const", "attr": {"value": {"tensor": {"dtype": "DT_FLOAT", "tensorShape": {"dim": [{"size": "1"}, {"size": "1"}, {"size": "192"}, {"size": "128"}]}}}, "dtype": {"type": "DT_FLOAT"}}}, {"name": "model_129/tf.math.add_178/Add/y", "op": "Const", "attr": {"value": {"tensor": {"dtype": "DT_FLOAT", "tensorShape": {"dim": [{"size": "128"}]}}}, "dtype": {"type": "DT_FLOAT"}}}, {"name": "model_129/tf.compat.v1.pad_13/Pad/paddings", "op": "Const", "attr": {"value": {"tensor": {"dtype": "DT_INT32", "tensorShape": {"dim": [{"size": "4"}, {"size": "2"}]}}}, "dtype": {"type": "DT_INT32"}}}, {"name": "model_129/tf.nn.convolution_154/convolution/filter", "op": "Const", "attr": {"value": {"tensor": {"dtype": "DT_FLOAT", "tensorShape": {"dim": [{"size": "3"}, {"size": "3"}, {"size": "128"}, {"size": "128"}]}}}, "dtype": {"type": "DT_FLOAT"}}}, {"name": "model_129/tf.math.add_179/Add/y", "op": "Const", "attr": {"value": {"tensor": {"dtype": "DT_FLOAT", "tensorShape": {"dim": [{"size": "128"}]}}}, "dtype": {"type": "DT_FLOAT"}}}, {"name": "model_129/tf.strided_slice_24/ones_like/tensor", "op": "Const", "attr": {"value": {"tensor": {"dtype": "DT_INT64", "tensorShape": {"dim": [{"size": "4"}]}}}, "dtype": {"type": "DT_INT64"}}}, {"name": "model_129/tf.strided_slice_24/StridedSlice/end", "op": "Const", "attr": {"value": {"tensor": {"dtype": "DT_INT64", "tensorShape": {"dim": [{"size": "4"}]}}}, "dtype": {"type": "DT_INT64"}}}, {"name": "model_129/tf.strided_slice_24/ones_like", "op": "Const", "attr": {"value": {"tensor": {"dtype": "DT_INT64", "tensorShape": {"dim": [{"size": "4"}]}}}, "dtype": {"type": "DT_INT64"}}}, {"name": "model_129/tf.strided_slice_22/ones_like/tensor", "op": "Const", "attr": {"value": {"tensor": {"dtype": "DT_INT64", "tensorShape": {"dim": [{"size": "4"}]}}}, "dtype": {"type": "DT_INT64"}}}, {"name": "model_129/tf.strided_slice_22/StridedSlice/end", "op": "Const", "attr": {"value": {"tensor": {"dtype": "DT_INT64", "tensorShape": {"dim": [{"size": "4"}]}}}, "dtype": {"type": "DT_INT64"}}}, {"name": "model_129/tf.strided_slice_22/ones_like", "op": "Const", "attr": {"value": {"tensor": {"dtype": "DT_INT64", "tensorShape": {"dim": [{"size": "4"}]}}}, "dtype": {"type": "DT_INT64"}}}, {"name": "model_129/tf.strided_slice_20/ones_like/tensor", "op": "Const", "attr": {"value": {"tensor": {"dtype": "DT_INT64", "tensorShape": {"dim": [{"size": "4"}]}}}, "dtype": {"type": "DT_INT64"}}}, {"name": "model_129/tf.strided_slice_20/StridedSlice/end", "op": "Const", "attr": {"value": {"tensor": {"dtype": "DT_INT64", "tensorShape": {"dim": [{"size": "4"}]}}}, "dtype": {"type": "DT_INT64"}}}, {"name": "model_129/tf.strided_slice_20/ones_like", "op": "Const", "attr": {"value": {"tensor": {"dtype": "DT_INT64", "tensorShape": {"dim": [{"size": "4"}]}}}, "dtype": {"type": "DT_INT64"}}}, {"name": "model_129/tf.strided_slice_18/ones_like/tensor", "op": "Const", "attr": {"value": {"tensor": {"dtype": "DT_INT64", "tensorShape": {"dim": [{"size": "4"}]}}}, "dtype": {"type": "DT_INT64"}}}, {"name": "model_129/tf.strided_slice_18/StridedSlice/end", "op": "Const", "attr": {"value": {"tensor": {"dtype": "DT_INT64", "tensorShape": {"dim": [{"size": "4"}]}}}, "dtype": {"type": "DT_INT64"}}}, {"name": "model_129/tf.strided_slice_18/ones_like", "op": "Const", "attr": {"value": {"tensor": {"dtype": "DT_INT64", "tensorShape": {"dim": [{"size": "4"}]}}}, "dtype": {"type": "DT_INT64"}}}, {"name": "model_129/tf.compat.v1.pad_7/Pad/paddings", "op": "Const", "attr": {"value": {"tensor": {"dtype": "DT_INT32", "tensorShape": {"dim": [{"size": "4"}, {"size": "2"}]}}}, "dtype": {"type": "DT_INT32"}}}, {"name": "model_129/tf.nn.convolution_90/convolution/filter", "op": "Const", "attr": {"value": {"tensor": {"dtype": "DT_FLOAT", "tensorShape": {"dim": [{"size": "3"}, {"size": "3"}, {"size": "3"}, {"size": "16"}]}}}, "dtype": {"type": "DT_FLOAT"}}}, {"name": "model_129/tf.math.add_103/Add/y", "op": "Const", "attr": {"value": {"tensor": {"dtype": "DT_FLOAT", "tensorShape": {"dim": [{"size": "16"}]}}}, "dtype": {"type": "DT_FLOAT"}}}, {"name": "model_129/tf.compat.v1.pad_8/Pad/paddings", "op": "Const", "attr": {"value": {"tensor": {"dtype": "DT_INT32", "tensorShape": {"dim": [{"size": "4"}, {"size": "2"}]}}}, "dtype": {"type": "DT_INT32"}}}, {"name": "model_129/tf.nn.convolution_91/convolution/filter", "op": "Const", "attr": {"value": {"tensor": {"dtype": "DT_FLOAT", "tensorShape": {"dim": [{"size": "3"}, {"size": "3"}, {"size": "16"}, {"size": "32"}]}}}, "dtype": {"type": "DT_FLOAT"}}}, {"name": "model_129/tf.math.add_104/Add/y", "op": "Const", "attr": {"value": {"tensor": {"dtype": "DT_FLOAT", "tensorShape": {"dim": [{"size": "32"}]}}}, "dtype": {"type": "DT_FLOAT"}}}, {"name": "model_129/tf.nn.convolution_92/convolution/filter", "op": "Const", "attr": {"value": {"tensor": {"dtype": "DT_FLOAT", "tensorShape": {"dim": [{"size": "1"}, {"size": "1"}, {"size": "32"}, {"size": "32"}]}}}, "dtype": {"type": "DT_FLOAT"}}}, {"name": "model_129/tf.math.add_105/Add/y", "op": "Const", "attr": {"value": {"tensor": {"dtype": "DT_FLOAT", "tensorShape": {"dim": [{"size": "32"}]}}}, "dtype": {"type": "DT_FLOAT"}}}, {"name": "model_129/tf.strided_slice_19/ones_like/tensor", "op": "Const", "attr": {"value": {"tensor": {"dtype": "DT_INT64", "tensorShape": {"dim": [{"size": "4"}]}}}, "dtype": {"type": "DT_INT64"}}}, {"name": "model_129/tf.strided_slice_19/StridedSlice/end", "op": "Const", "attr": {"value": {"tensor": {"dtype": "DT_INT64", "tensorShape": {"dim": [{"size": "4"}]}}}, "dtype": {"type": "DT_INT64"}}}, {"name": "model_129/tf.strided_slice_19/ones_like", "op": "Const", "attr": {"value": {"tensor": {"dtype": "DT_INT64", "tensorShape": {"dim": [{"size": "4"}]}}}, "dtype": {"type": "DT_INT64"}}}, {"name": "model_129/tf.nn.convolution_93/convolution/filter", "op": "Const", "attr": {"value": {"tensor": {"dtype": "DT_FLOAT", "tensorShape": {"dim": [{"size": "3"}, {"size": "3"}, {"size": "16"}, {"size": "16"}]}}}, "dtype": {"type": "DT_FLOAT"}}}, {"name": "model_129/tf.math.add_106/Add/y", "op": "Const", "attr": {"value": {"tensor": {"dtype": "DT_FLOAT", "tensorShape": {"dim": [{"size": "16"}]}}}, "dtype": {"type": "DT_FLOAT"}}}, {"name": "model_129/tf.nn.convolution_94/convolution/filter", "op": "Const", "attr": {"value": {"tensor": {"dtype": "DT_FLOAT", "tensorShape": {"dim": [{"size": "3"}, {"size": "3"}, {"size": "16"}, {"size": "16"}]}}}, "dtype": {"type": "DT_FLOAT"}}}, {"name": "model_129/tf.math.add_107/Add/y", "op": "Const", "attr": {"value": {"tensor": {"dtype": "DT_FLOAT", "tensorShape": {"dim": [{"size": "16"}]}}}, "dtype": {"type": "DT_FLOAT"}}}, {"name": "model_129/tf.concat_24/concat/axis", "op": "Const", "attr": {"value": {"tensor": {"dtype": "DT_INT32", "tensorShape": {}}}, "dtype": {"type": "DT_INT32"}}}, {"name": "model_129/tf.nn.convolution_95/convolution/filter", "op": "Const", "attr": {"value": {"tensor": {"dtype": "DT_FLOAT", "tensorShape": {"dim": [{"size": "1"}, {"size": "1"}, {"size": "48"}, {"size": "32"}]}}}, "dtype": {"type": "DT_FLOAT"}}}, {"name": "model_129/tf.math.add_110/Add/y", "op": "Const", "attr": {"value": {"tensor": {"dtype": "DT_FLOAT", "tensorShape": {"dim": [{"size": "32"}]}}}, "dtype": {"type": "DT_FLOAT"}}}, {"name": "model_129/tf.compat.v1.pad_9/Pad/paddings", "op": "Const", "attr": {"value": {"tensor": {"dtype": "DT_INT32", "tensorShape": {"dim": [{"size": "4"}, {"size": "2"}]}}}, "dtype": {"type": "DT_INT32"}}}, {"name": "model_129/tf.nn.convolution_96/convolution/filter", "op": "Const", "attr": {"value": {"tensor": {"dtype": "DT_FLOAT", "tensorShape": {"dim": [{"size": "3"}, {"size": "3"}, {"size": "32"}, {"size": "64"}]}}}, "dtype": {"type": "DT_FLOAT"}}}, {"name": "model_129/tf.math.add_111/Add/y", "op": "Const", "attr": {"value": {"tensor": {"dtype": "DT_FLOAT", "tensorShape": {"dim": [{"size": "64"}]}}}, "dtype": {"type": "DT_FLOAT"}}}, {"name": "model_129/tf.nn.convolution_97/convolution/filter", "op": "Const", "attr": {"value": {"tensor": {"dtype": "DT_FLOAT", "tensorShape": {"dim": [{"size": "1"}, {"size": "1"}, {"size": "64"}, {"size": "64"}]}}}, "dtype": {"type": "DT_FLOAT"}}}, {"name": "model_129/tf.math.add_112/Add/y", "op": "Const", "attr": {"value": {"tensor": {"dtype": "DT_FLOAT", "tensorShape": {"dim": [{"size": "64"}]}}}, "dtype": {"type": "DT_FLOAT"}}}, {"name": "model_129/tf.strided_slice_21/ones_like/tensor", "op": "Const", "attr": {"value": {"tensor": {"dtype": "DT_INT64", "tensorShape": {"dim": [{"size": "4"}]}}}, "dtype": {"type": "DT_INT64"}}}, {"name": "model_129/tf.strided_slice_21/StridedSlice/end", "op": "Const", "attr": {"value": {"tensor": {"dtype": "DT_INT64", "tensorShape": {"dim": [{"size": "4"}]}}}, "dtype": {"type": "DT_INT64"}}}, {"name": "model_129/tf.strided_slice_21/ones_like", "op": "Const", "attr": {"value": {"tensor": {"dtype": "DT_INT64", "tensorShape": {"dim": [{"size": "4"}]}}}, "dtype": {"type": "DT_INT64"}}}, {"name": "model_129/tf.nn.convolution_98/convolution/filter", "op": "Const", "attr": {"value": {"tensor": {"dtype": "DT_FLOAT", "tensorShape": {"dim": [{"size": "3"}, {"size": "3"}, {"size": "32"}, {"size": "32"}]}}}, "dtype": {"type": "DT_FLOAT"}}}, {"name": "model_129/tf.math.add_113/Add/y", "op": "Const", "attr": {"value": {"tensor": {"dtype": "DT_FLOAT", "tensorShape": {"dim": [{"size": "32"}]}}}, "dtype": {"type": "DT_FLOAT"}}}, {"name": "model_129/tf.nn.convolution_99/convolution/filter", "op": "Const", "attr": {"value": {"tensor": {"dtype": "DT_FLOAT", "tensorShape": {"dim": [{"size": "3"}, {"size": "3"}, {"size": "32"}, {"size": "32"}]}}}, "dtype": {"type": "DT_FLOAT"}}}, {"name": "model_129/tf.math.add_114/Add/y", "op": "Const", "attr": {"value": {"tensor": {"dtype": "DT_FLOAT", "tensorShape": {"dim": [{"size": "32"}]}}}, "dtype": {"type": "DT_FLOAT"}}}, {"name": "model_129/tf.nn.convolution_100/convolution/filter", "op": "Const", "attr": {"value": {"tensor": {"dtype": "DT_FLOAT", "tensorShape": {"dim": [{"size": "3"}, {"size": "3"}, {"size": "32"}, {"size": "32"}]}}}, "dtype": {"type": "DT_FLOAT"}}}, {"name": "model_129/tf.math.add_117/Add/y", "op": "Const", "attr": {"value": {"tensor": {"dtype": "DT_FLOAT", "tensorShape": {"dim": [{"size": "32"}]}}}, "dtype": {"type": "DT_FLOAT"}}}, {"name": "model_129/tf.nn.convolution_101/convolution/filter", "op": "Const", "attr": {"value": {"tensor": {"dtype": "DT_FLOAT", "tensorShape": {"dim": [{"size": "3"}, {"size": "3"}, {"size": "32"}, {"size": "32"}]}}}, "dtype": {"type": "DT_FLOAT"}}}, {"name": "model_129/tf.math.add_118/Add/y", "op": "Const", "attr": {"value": {"tensor": {"dtype": "DT_FLOAT", "tensorShape": {"dim": [{"size": "32"}]}}}, "dtype": {"type": "DT_FLOAT"}}}, {"name": "model_129/tf.concat_25/concat/axis", "op": "Const", "attr": {"value": {"tensor": {"dtype": "DT_INT32", "tensorShape": {}}}, "dtype": {"type": "DT_INT32"}}}, {"name": "model_129/tf.nn.convolution_104/convolution/filter", "op": "Const", "attr": {"value": {"tensor": {"dtype": "DT_FLOAT", "tensorShape": {"dim": [{"size": "1"}, {"size": "1"}, {"size": "128"}, {"size": "64"}]}}}, "dtype": {"type": "DT_FLOAT"}}}, {"name": "model_129/tf.math.add_123/Add/y", "op": "Const", "attr": {"value": {"tensor": {"dtype": "DT_FLOAT", "tensorShape": {"dim": [{"size": "64"}]}}}, "dtype": {"type": "DT_FLOAT"}}}, {"name": "model_129/tf.compat.v1.pad_10/Pad/paddings", "op": "Const", "attr": {"value": {"tensor": {"dtype": "DT_INT32", "tensorShape": {"dim": [{"size": "4"}, {"size": "2"}]}}}, "dtype": {"type": "DT_INT32"}}}, {"name": "model_129/tf.nn.convolution_105/convolution/filter", "op": "Const", "attr": {"value": {"tensor": {"dtype": "DT_FLOAT", "tensorShape": {"dim": [{"size": "3"}, {"size": "3"}, {"size": "64"}, {"size": "128"}]}}}, "dtype": {"type": "DT_FLOAT"}}}, {"name": "model_129/tf.math.add_124/Add/y", "op": "Const", "attr": {"value": {"tensor": {"dtype": "DT_FLOAT", "tensorShape": {"dim": [{"size": "128"}]}}}, "dtype": {"type": "DT_FLOAT"}}}, {"name": "model_129/tf.nn.convolution_106/convolution/filter", "op": "Const", "attr": {"value": {"tensor": {"dtype": "DT_FLOAT", "tensorShape": {"dim": [{"size": "1"}, {"size": "1"}, {"size": "128"}, {"size": "128"}]}}}, "dtype": {"type": "DT_FLOAT"}}}, {"name": "model_129/tf.math.add_125/Add/y", "op": "Const", "attr": {"value": {"tensor": {"dtype": "DT_FLOAT", "tensorShape": {"dim": [{"size": "128"}]}}}, "dtype": {"type": "DT_FLOAT"}}}, {"name": "model_129/tf.strided_slice_23/ones_like/tensor", "op": "Const", "attr": {"value": {"tensor": {"dtype": "DT_INT64", "tensorShape": {"dim": [{"size": "4"}]}}}, "dtype": {"type": "DT_INT64"}}}, {"name": "model_129/tf.strided_slice_23/StridedSlice/end", "op": "Const", "attr": {"value": {"tensor": {"dtype": "DT_INT64", "tensorShape": {"dim": [{"size": "4"}]}}}, "dtype": {"type": "DT_INT64"}}}, {"name": "model_129/tf.strided_slice_23/ones_like", "op": "Const", "attr": {"value": {"tensor": {"dtype": "DT_INT64", "tensorShape": {"dim": [{"size": "4"}]}}}, "dtype": {"type": "DT_INT64"}}}, {"name": "model_129/tf.nn.convolution_109/convolution/filter", "op": "Const", "attr": {"value": {"tensor": {"dtype": "DT_FLOAT", "tensorShape": {"dim": [{"size": "3"}, {"size": "3"}, {"size": "64"}, {"size": "64"}]}}}, "dtype": {"type": "DT_FLOAT"}}}, {"name": "model_129/tf.math.add_128/Add/y", "op": "Const", "attr": {"value": {"tensor": {"dtype": "DT_FLOAT", "tensorShape": {"dim": [{"size": "64"}]}}}, "dtype": {"type": "DT_FLOAT"}}}, {"name": "model_129/tf.nn.convolution_112/convolution/filter", "op": "Const", "attr": {"value": {"tensor": {"dtype": "DT_FLOAT", "tensorShape": {"dim": [{"size": "3"}, {"size": "3"}, {"size": "64"}, {"size": "64"}]}}}, "dtype": {"type": "DT_FLOAT"}}}, {"name": "model_129/tf.math.add_131/Add/y", "op": "Const", "attr": {"value": {"tensor": {"dtype": "DT_FLOAT", "tensorShape": {"dim": [{"size": "64"}]}}}, "dtype": {"type": "DT_FLOAT"}}}, {"name": "model_129/tf.nn.convolution_115/convolution/filter", "op": "Const", "attr": {"value": {"tensor": {"dtype": "DT_FLOAT", "tensorShape": {"dim": [{"size": "3"}, {"size": "3"}, {"size": "64"}, {"size": "64"}]}}}, "dtype": {"type": "DT_FLOAT"}}}, {"name": "model_129/tf.math.add_136/Add/y", "op": "Const", "attr": {"value": {"tensor": {"dtype": "DT_FLOAT", "tensorShape": {"dim": [{"size": "64"}]}}}, "dtype": {"type": "DT_FLOAT"}}}, {"name": "model_129/tf.nn.convolution_118/convolution/filter", "op": "Const", "attr": {"value": {"tensor": {"dtype": "DT_FLOAT", "tensorShape": {"dim": [{"size": "3"}, {"size": "3"}, {"size": "64"}, {"size": "64"}]}}}, "dtype": {"type": "DT_FLOAT"}}}, {"name": "model_129/tf.math.add_139/Add/y", "op": "Const", "attr": {"value": {"tensor": {"dtype": "DT_FLOAT", "tensorShape": {"dim": [{"size": "64"}]}}}, "dtype": {"type": "DT_FLOAT"}}}, {"name": "model_129/tf.concat_26/concat/axis", "op": "Const", "attr": {"value": {"tensor": {"dtype": "DT_INT32", "tensorShape": {}}}, "dtype": {"type": "DT_INT32"}}}, {"name": "model_129/tf.nn.convolution_119/convolution/filter", "op": "Const", "attr": {"value": {"tensor": {"dtype": "DT_FLOAT", "tensorShape": {"dim": [{"size": "1"}, {"size": "1"}, {"size": "256"}, {"size": "128"}]}}}, "dtype": {"type": "DT_FLOAT"}}}, {"name": "model_129/tf.math.add_142/Add/y", "op": "Const", "attr": {"value": {"tensor": {"dtype": "DT_FLOAT", "tensorShape": {"dim": [{"size": "128"}]}}}, "dtype": {"type": "DT_FLOAT"}}}, {"name": "model_129/tf.compat.v1.pad_11/Pad/paddings", "op": "Const", "attr": {"value": {"tensor": {"dtype": "DT_INT32", "tensorShape": {"dim": [{"size": "4"}, {"size": "2"}]}}}, "dtype": {"type": "DT_INT32"}}}, {"name": "model_129/tf.nn.convolution_120/convolution/filter", "op": "Const", "attr": {"value": {"tensor": {"dtype": "DT_FLOAT", "tensorShape": {"dim": [{"size": "3"}, {"size": "3"}, {"size": "128"}, {"size": "256"}]}}}, "dtype": {"type": "DT_FLOAT"}}}, {"name": "model_129/tf.math.add_143/Add/y", "op": "Const", "attr": {"value": {"tensor": {"dtype": "DT_FLOAT", "tensorShape": {"dim": [{"size": "256"}]}}}, "dtype": {"type": "DT_FLOAT"}}}, {"name": "model_129/tf.nn.convolution_121/convolution/filter", "op": "Const", "attr": {"value": {"tensor": {"dtype": "DT_FLOAT", "tensorShape": {"dim": [{"size": "1"}, {"size": "1"}, {"size": "256"}, {"size": "256"}]}}}, "dtype": {"type": "DT_FLOAT"}}}, {"name": "model_129/tf.math.add_144/Add/y", "op": "Const", "attr": {"value": {"tensor": {"dtype": "DT_FLOAT", "tensorShape": {"dim": [{"size": "256"}]}}}, "dtype": {"type": "DT_FLOAT"}}}, {"name": "model_129/tf.strided_slice_25/ones_like/tensor", "op": "Const", "attr": {"value": {"tensor": {"dtype": "DT_INT64", "tensorShape": {"dim": [{"size": "4"}]}}}, "dtype": {"type": "DT_INT64"}}}, {"name": "model_129/tf.strided_slice_25/StridedSlice/end", "op": "Const", "attr": {"value": {"tensor": {"dtype": "DT_INT64", "tensorShape": {"dim": [{"size": "4"}]}}}, "dtype": {"type": "DT_INT64"}}}, {"name": "model_129/tf.strided_slice_25/ones_like", "op": "Const", "attr": {"value": {"tensor": {"dtype": "DT_INT64", "tensorShape": {"dim": [{"size": "4"}]}}}, "dtype": {"type": "DT_INT64"}}}, {"name": "model_129/tf.nn.convolution_122/convolution/filter", "op": "Const", "attr": {"value": {"tensor": {"dtype": "DT_FLOAT", "tensorShape": {"dim": [{"size": "3"}, {"size": "3"}, {"size": "128"}, {"size": "128"}]}}}, "dtype": {"type": "DT_FLOAT"}}}, {"name": "model_129/tf.math.add_145/Add/y", "op": "Const", "attr": {"value": {"tensor": {"dtype": "DT_FLOAT", "tensorShape": {"dim": [{"size": "128"}]}}}, "dtype": {"type": "DT_FLOAT"}}}, {"name": "model_129/tf.nn.convolution_123/convolution/filter", "op": "Const", "attr": {"value": {"tensor": {"dtype": "DT_FLOAT", "tensorShape": {"dim": [{"size": "3"}, {"size": "3"}, {"size": "128"}, {"size": "128"}]}}}, "dtype": {"type": "DT_FLOAT"}}}, {"name": "model_129/tf.math.add_146/Add/y", "op": "Const", "attr": {"value": {"tensor": {"dtype": "DT_FLOAT", "tensorShape": {"dim": [{"size": "128"}]}}}, "dtype": {"type": "DT_FLOAT"}}}, {"name": "model_129/tf.concat_27/concat/axis", "op": "Const", "attr": {"value": {"tensor": {"dtype": "DT_INT32", "tensorShape": {}}}, "dtype": {"type": "DT_INT32"}}}, {"name": "model_129/tf.nn.convolution_124/convolution/filter", "op": "Const", "attr": {"value": {"tensor": {"dtype": "DT_FLOAT", "tensorShape": {"dim": [{"size": "1"}, {"size": "1"}, {"size": "384"}, {"size": "256"}]}}}, "dtype": {"type": "DT_FLOAT"}}}, {"name": "model_129/tf.math.add_149/Add/y", "op": "Const", "attr": {"value": {"tensor": {"dtype": "DT_FLOAT", "tensorShape": {"dim": [{"size": "256"}]}}}, "dtype": {"type": "DT_FLOAT"}}}, {"name": "model_129/tf.nn.convolution_125/convolution/filter", "op": "Const", "attr": {"value": {"tensor": {"dtype": "DT_FLOAT", "tensorShape": {"dim": [{"size": "1"}, {"size": "1"}, {"size": "256"}, {"size": "128"}]}}}, "dtype": {"type": "DT_FLOAT"}}}, {"name": "model_129/tf.math.add_150/Add/y", "op": "Const", "attr": {"value": {"tensor": {"dtype": "DT_FLOAT", "tensorShape": {"dim": [{"size": "128"}]}}}, "dtype": {"type": "DT_FLOAT"}}}, {"name": "model_129/tf.concat_28/concat/axis", "op": "Const", "attr": {"value": {"tensor": {"dtype": "DT_INT32", "tensorShape": {}}}, "dtype": {"type": "DT_INT32"}}}, {"name": "model_129/tf.nn.convolution_126/convolution/filter", "op": "Const", "attr": {"value": {"tensor": {"dtype": "DT_FLOAT", "tensorShape": {"dim": [{"size": "1"}, {"size": "1"}, {"size": "512"}, {"size": "256"}]}}}, "dtype": {"type": "DT_FLOAT"}}}, {"name": "model_129/tf.math.add_151/Add/y", "op": "Const", "attr": {"value": {"tensor": {"dtype": "DT_FLOAT", "tensorShape": {"dim": [{"size": "256"}]}}}, "dtype": {"type": "DT_FLOAT"}}}, {"name": "model_129/tf.concat_39/concat/axis", "op": "Const", "attr": {"value": {"tensor": {"dtype": "DT_INT32", "tensorShape": {}}}, "dtype": {"type": "DT_INT32"}}}, {"name": "model_129/tf.nn.convolution_163/convolution/filter", "op": "Const", "attr": {"value": {"tensor": {"dtype": "DT_FLOAT", "tensorShape": {"dim": [{"size": "1"}, {"size": "1"}, {"size": "384"}, {"size": "256"}]}}}, "dtype": {"type": "DT_FLOAT"}}}, {"name": "model_129/tf.math.add_188/Add/y", "op": "Const", "attr": {"value": {"tensor": {"dtype": "DT_FLOAT", "tensorShape": {"dim": [{"size": "256"}]}}}, "dtype": {"type": "DT_FLOAT"}}}, {"name": "model_129/tf.strided_slice_33/ones_like/tensor", "op": "Const", "attr": {"value": {"tensor": {"dtype": "DT_INT64", "tensorShape": {"dim": [{"size": "4"}]}}}, "dtype": {"type": "DT_INT64"}}}, {"name": "model_129/tf.strided_slice_33/StridedSlice/end", "op": "Const", "attr": {"value": {"tensor": {"dtype": "DT_INT64", "tensorShape": {"dim": [{"size": "4"}]}}}, "dtype": {"type": "DT_INT64"}}}, {"name": "model_129/tf.strided_slice_33/ones_like", "op": "Const", "attr": {"value": {"tensor": {"dtype": "DT_INT64", "tensorShape": {"dim": [{"size": "4"}]}}}, "dtype": {"type": "DT_INT64"}}}, {"name": "model_129/tf.nn.convolution_170/convolution/filter", "op": "Const", "attr": {"value": {"tensor": {"dtype": "DT_FLOAT", "tensorShape": {"dim": [{"size": "3"}, {"size": "3"}, {"size": "128"}, {"size": "128"}]}}}, "dtype": {"type": "DT_FLOAT"}}}, {"name": "model_129/tf.math.add_195/Add/y", "op": "Const", "attr": {"value": {"tensor": {"dtype": "DT_FLOAT", "tensorShape": {"dim": [{"size": "128"}]}}}, "dtype": {"type": "DT_FLOAT"}}}, {"name": "model_129/tf.nn.convolution_171/convolution/filter", "op": "Const", "attr": {"value": {"tensor": {"dtype": "DT_FLOAT", "tensorShape": {"dim": [{"size": "3"}, {"size": "3"}, {"size": "128"}, {"size": "128"}]}}}, "dtype": {"type": "DT_FLOAT"}}}, {"name": "model_129/tf.math.add_196/Add/y", "op": "Const", "attr": {"value": {"tensor": {"dtype": "DT_FLOAT", "tensorShape": {"dim": [{"size": "128"}]}}}, "dtype": {"type": "DT_FLOAT"}}}, {"name": "model_129/tf.concat_40/concat/axis", "op": "Const", "attr": {"value": {"tensor": {"dtype": "DT_INT32", "tensorShape": {}}}, "dtype": {"type": "DT_INT32"}}}, {"name": "model_129/tf.nn.convolution_172/convolution/filter", "op": "Const", "attr": {"value": {"tensor": {"dtype": "DT_FLOAT", "tensorShape": {"dim": [{"size": "1"}, {"size": "1"}, {"size": "384"}, {"size": "256"}]}}}, "dtype": {"type": "DT_FLOAT"}}}, {"name": "model_129/tf.math.add_197/Add/y", "op": "Const", "attr": {"value": {"tensor": {"dtype": "DT_FLOAT", "tensorShape": {"dim": [{"size": "256"}]}}}, "dtype": {"type": "DT_FLOAT"}}}, {"name": "model_129/tf.nn.convolution_174/convolution/filter", "op": "Const", "attr": {"value": {"tensor": {"dtype": "DT_FLOAT", "tensorShape": {"dim": [{"size": "3"}, {"size": "3"}, {"size": "256"}, {"size": "64"}]}}}, "dtype": {"type": "DT_FLOAT"}}}, {"name": "model_129/tf.math.add_199/Add/y", "op": "Const", "attr": {"value": {"tensor": {"dtype": "DT_FLOAT", "tensorShape": {"dim": [{"size": "64"}]}}}, "dtype": {"type": "DT_FLOAT"}}}, {"name": "model_129/tf.nn.convolution_176/convolution/filter", "op": "Const", "attr": {"value": {"tensor": {"dtype": "DT_FLOAT", "tensorShape": {"dim": [{"size": "3"}, {"size": "3"}, {"size": "64"}, {"size": "64"}]}}}, "dtype": {"type": "DT_FLOAT"}}}, {"name": "model_129/tf.math.add_201/Add/y", "op": "Const", "attr": {"value": {"tensor": {"dtype": "DT_FLOAT", "tensorShape": {"dim": [{"size": "64"}]}}}, "dtype": {"type": "DT_FLOAT"}}}, {"name": "model_129/tf.nn.convolution_178/convolution/filter", "op": "Const", "attr": {"value": {"tensor": {"dtype": "DT_FLOAT", "tensorShape": {"dim": [{"size": "1"}, {"size": "1"}, {"size": "64"}, {"size": "9"}]}}}, "dtype": {"type": "DT_FLOAT"}}}, {"name": "model_129/tf.math.add_203/Add/y", "op": "Const", "attr": {"value": {"tensor": {"dtype": "DT_FLOAT", "tensorShape": {"dim": [{"size": "9"}]}}}, "dtype": {"type": "DT_FLOAT"}}}, {"name": "model_129/tf.compat.v1.transpose_280/transpose/perm", "op": "Const", "attr": {"value": {"tensor": {"dtype": "DT_INT32", "tensorShape": {"dim": [{"size": "4"}]}}}, "dtype": {"type": "DT_INT32"}}}, {"name": "model_129/tf.reshape_41/Reshape/shape", "op": "Const", "attr": {"value": {"tensor": {"dtype": "DT_INT32", "tensorShape": {"dim": [{"size": "3"}]}}}, "dtype": {"type": "DT_INT32"}}}, {"name": "model_129/tf.concat_42/concat/axis", "op": "Const", "attr": {"value": {"tensor": {"dtype": "DT_INT32", "tensorShape": {}}}, "dtype": {"type": "DT_INT32"}}}, {"name": "model_129/output0/concat/axis", "op": "Const", "attr": {"value": {"tensor": {"dtype": "DT_INT32", "tensorShape": {}}}, "dtype": {"type": "DT_INT32"}}}, {"name": "x", "op": "Placeholder", "attr": {"shape": {"shape": {"dim": [{"size": "1"}, {"size": "1024"}, {"size": "1024"}, {"size": "3"}]}}, "dtype": {"type": "DT_FLOAT"}}}, {"name": "model_129/tf.compat.v1.pad_7/Pad", "op": "Pad", "input": ["x", "model_129/tf.compat.v1.pad_7/Pad/paddings"], "attr": {"Tpaddings": {"type": "DT_INT32"}, "T": {"type": "DT_FLOAT"}}}, {"name": "model_129/tf.math.add_103/Add", "op": "_FusedConv2D", "input": ["model_129/tf.compat.v1.pad_7/Pad", "model_129/tf.nn.convolution_90/convolution/filter", "model_129/tf.math.add_103/Add/y"], "device": "/device:CPU:0", "attr": {"num_host_args": {"i": "0"}, "data_format": {"s": "TkhXQw=="}, "filter_format": {"s": "SFdJTw=="}, "fused_ops": {"list": {"s": ["Qmlhc0FkZA=="]}}, "num_args": {"i": "1"}, "strides": {"list": {"i": ["1", "2", "2", "1"]}}, "TArgs": {"list": {"type": ["DT_FLOAT"]}}, "padding": {"s": "VkFMSUQ="}, "use_cudnn_on_gpu": {"b": true}, "leakyrelu_alpha": {"f": 0.2}, "epsilon": {"f": 0.0}, "T": {"type": "DT_FLOAT"}, "explicit_paddings": {"list": {}}, "dilations": {"list": {"i": ["1", "1", "1", "1"]}}}}, {"name": "model_129/tf.math.sigmoid_57/Sigmoid", "op": "Sigmoid", "input": ["model_129/tf.math.add_103/Add"], "attr": {"T": {"type": "DT_FLOAT"}}}, {"name": "model_129/tf.math.multiply_252/Mul", "op": "Mul", "input": ["model_129/tf.math.add_103/Add", "model_129/tf.math.sigmoid_57/Sigmoid"], "attr": {"T": {"type": "DT_FLOAT"}}}, {"name": "model_129/tf.compat.v1.pad_8/Pad", "op": "Pad", "input": ["model_129/tf.math.multiply_252/Mul", "model_129/tf.compat.v1.pad_8/Pad/paddings"], "attr": {"Tpaddings": {"type": "DT_INT32"}, "T": {"type": "DT_FLOAT"}}}, {"name": "model_129/tf.math.add_104/Add", "op": "_FusedConv2D", "input": ["model_129/tf.compat.v1.pad_8/Pad", "model_129/tf.nn.convolution_91/convolution/filter", "model_129/tf.math.add_104/Add/y"], "device": "/device:CPU:0", "attr": {"num_host_args": {"i": "0"}, "data_format": {"s": "TkhXQw=="}, "filter_format": {"s": "SFdJTw=="}, "strides": {"list": {"i": ["1", "2", "2", "1"]}}, "num_args": {"i": "1"}, "fused_ops": {"list": {"s": ["Qmlhc0FkZA=="]}}, "TArgs": {"list": {"type": ["DT_FLOAT"]}}, "padding": {"s": "VkFMSUQ="}, "use_cudnn_on_gpu": {"b": true}, "leakyrelu_alpha": {"f": 0.2}, "epsilon": {"f": 0.0}, "T": {"type": "DT_FLOAT"}, "explicit_paddings": {"list": {}}, "dilations": {"list": {"i": ["1", "1", "1", "1"]}}}}, {"name": "model_129/tf.math.sigmoid_58/Sigmoid", "op": "Sigmoid", "input": ["model_129/tf.math.add_104/Add"], "attr": {"T": {"type": "DT_FLOAT"}}}, {"name": "model_129/tf.math.multiply_256/Mul", "op": "Mul", "input": ["model_129/tf.math.add_104/Add", "model_129/tf.math.sigmoid_58/Sigmoid"], "attr": {"T": {"type": "DT_FLOAT"}}}, {"name": "model_129/tf.math.add_105/Add", "op": "_FusedConv2D", "input": ["model_129/tf.math.multiply_256/Mul", "model_129/tf.nn.convolution_92/convolution/filter", "model_129/tf.math.add_105/Add/y"], "device": "/device:CPU:0", "attr": {"num_host_args": {"i": "0"}, "data_format": {"s": "TkhXQw=="}, "filter_format": {"s": "SFdJTw=="}, "strides": {"list": {"i": ["1", "1", "1", "1"]}}, "num_args": {"i": "1"}, "fused_ops": {"list": {"s": ["Qmlhc0FkZA=="]}}, "TArgs": {"list": {"type": ["DT_FLOAT"]}}, "padding": {"s": "U0FNRQ=="}, "use_cudnn_on_gpu": {"b": true}, "leakyrelu_alpha": {"f": 0.2}, "epsilon": {"f": 0.0}, "T": {"type": "DT_FLOAT"}, "explicit_paddings": {"list": {}}, "dilations": {"list": {"i": ["1", "1", "1", "1"]}}}}, {"name": "model_129/tf.math.sigmoid_59/Sigmoid", "op": "Sigmoid", "input": ["model_129/tf.math.add_105/Add"], "attr": {"T": {"type": "DT_FLOAT"}}}, {"name": "model_129/tf.math.multiply_260/Mul", "op": "Mul", "input": ["model_129/tf.math.add_105/Add", "model_129/tf.math.sigmoid_59/Sigmoid"], "attr": {"T": {"type": "DT_FLOAT"}}}, {"name": "model_129/tf.strided_slice_18/StridedSlice", "op": "StridedSlice", "input": ["model_129/tf.math.multiply_260/Mul", "model_129/tf.strided_slice_18/ones_like/tensor", "model_129/tf.strided_slice_18/StridedSlice/end", "model_129/tf.strided_slice_18/ones_like"], "attr": {"shrink_axis_mask": {"i": "0"}, "new_axis_mask": {"i": "0"}, "Index": {"type": "DT_INT64"}, "begin_mask": {"i": "15"}, "end_mask": {"i": "7"}, "T": {"type": "DT_FLOAT"}, "ellipsis_mask": {"i": "0"}}}, {"name": "model_129/tf.strided_slice_19/StridedSlice", "op": "StridedSlice", "input": ["model_129/tf.math.multiply_260/Mul", "model_129/tf.strided_slice_19/ones_like/tensor", "model_129/tf.strided_slice_19/StridedSlice/end", "model_129/tf.strided_slice_19/ones_like"], "attr": {"shrink_axis_mask": {"i": "0"}, "new_axis_mask": {"i": "0"}, "Index": {"type": "DT_INT64"}, "begin_mask": {"i": "7"}, "end_mask": {"i": "7"}, "T": {"type": "DT_FLOAT"}, "ellipsis_mask": {"i": "0"}}}, {"name": "model_129/tf.math.add_106/Add", "op": "_FusedConv2D", "input": ["model_129/tf.strided_slice_19/StridedSlice", "model_129/tf.nn.convolution_93/convolution/filter", "model_129/tf.math.add_106/Add/y"], "device": "/device:CPU:0", "attr": {"num_host_args": {"i": "0"}, "data_format": {"s": "TkhXQw=="}, "filter_format": {"s": "SFdJTw=="}, "fused_ops": {"list": {"s": ["Qmlhc0FkZA=="]}}, "num_args": {"i": "1"}, "strides": {"list": {"i": ["1", "1", "1", "1"]}}, "TArgs": {"list": {"type": ["DT_FLOAT"]}}, "padding": {"s": "U0FNRQ=="}, "use_cudnn_on_gpu": {"b": true}, "leakyrelu_alpha": {"f": 0.2}, "epsilon": {"f": 0.0}, "T": {"type": "DT_FLOAT"}, "explicit_paddings": {"list": {}}, "dilations": {"list": {"i": ["1", "1", "1", "1"]}}}}, {"name": "model_129/tf.math.sigmoid_60/Sigmoid", "op": "Sigmoid", "input": ["model_129/tf.math.add_106/Add"], "attr": {"T": {"type": "DT_FLOAT"}}}, {"name": "model_129/tf.math.multiply_264/Mul", "op": "Mul", "input": ["model_129/tf.math.add_106/Add", "model_129/tf.math.sigmoid_60/Sigmoid"], "attr": {"T": {"type": "DT_FLOAT"}}}, {"name": "model_129/tf.math.add_107/Add", "op": "_FusedConv2D", "input": ["model_129/tf.math.multiply_264/Mul", "model_129/tf.nn.convolution_94/convolution/filter", "model_129/tf.math.add_107/Add/y"], "device": "/device:CPU:0", "attr": {"num_host_args": {"i": "0"}, "data_format": {"s": "TkhXQw=="}, "filter_format": {"s": "SFdJTw=="}, "strides": {"list": {"i": ["1", "1", "1", "1"]}}, "num_args": {"i": "1"}, "fused_ops": {"list": {"s": ["Qmlhc0FkZA=="]}}, "TArgs": {"list": {"type": ["DT_FLOAT"]}}, "padding": {"s": "U0FNRQ=="}, "use_cudnn_on_gpu": {"b": true}, "leakyrelu_alpha": {"f": 0.2}, "epsilon": {"f": 0.0}, "T": {"type": "DT_FLOAT"}, "explicit_paddings": {"list": {}}, "dilations": {"list": {"i": ["1", "1", "1", "1"]}}}}, {"name": "model_129/tf.math.sigmoid_61/Sigmoid", "op": "Sigmoid", "input": ["model_129/tf.math.add_107/Add"], "attr": {"T": {"type": "DT_FLOAT"}}}, {"name": "model_129/tf.math.multiply_268/Mul", "op": "Mul", "input": ["model_129/tf.math.add_107/Add", "model_129/tf.math.sigmoid_61/Sigmoid"], "attr": {"T": {"type": "DT_FLOAT"}}}, {"name": "model_129/tf.math.add_109/Add", "op": "AddV2", "input": ["model_129/tf.strided_slice_19/StridedSlice", "model_129/tf.math.multiply_268/Mul"], "attr": {"T": {"type": "DT_FLOAT"}}}, {"name": "model_129/tf.concat_24/concat", "op": "ConcatV2", "input": ["model_129/tf.strided_slice_18/StridedSlice", "model_129/tf.strided_slice_19/StridedSlice", "model_129/tf.math.add_109/Add", "model_129/tf.concat_24/concat/axis"], "attr": {"N": {"i": "3"}, "Tidx": {"type": "DT_INT32"}, "T": {"type": "DT_FLOAT"}}}, {"name": "model_129/tf.math.add_110/Add", "op": "_FusedConv2D", "input": ["model_129/tf.concat_24/concat", "model_129/tf.nn.convolution_95/convolution/filter", "model_129/tf.math.add_110/Add/y"], "device": "/device:CPU:0", "attr": {"num_host_args": {"i": "0"}, "data_format": {"s": "TkhXQw=="}, "filter_format": {"s": "SFdJTw=="}, "fused_ops": {"list": {"s": ["Qmlhc0FkZA=="]}}, "num_args": {"i": "1"}, "strides": {"list": {"i": ["1", "1", "1", "1"]}}, "TArgs": {"list": {"type": ["DT_FLOAT"]}}, "padding": {"s": "U0FNRQ=="}, "use_cudnn_on_gpu": {"b": true}, "leakyrelu_alpha": {"f": 0.2}, "epsilon": {"f": 0.0}, "T": {"type": "DT_FLOAT"}, "explicit_paddings": {"list": {}}, "dilations": {"list": {"i": ["1", "1", "1", "1"]}}}}, {"name": "model_129/tf.math.sigmoid_62/Sigmoid", "op": "Sigmoid", "input": ["model_129/tf.math.add_110/Add"], "attr": {"T": {"type": "DT_FLOAT"}}}, {"name": "model_129/tf.math.multiply_274/Mul", "op": "Mul", "input": ["model_129/tf.math.add_110/Add", "model_129/tf.math.sigmoid_62/Sigmoid"], "attr": {"T": {"type": "DT_FLOAT"}}}, {"name": "model_129/tf.compat.v1.pad_9/Pad", "op": "Pad", "input": ["model_129/tf.math.multiply_274/Mul", "model_129/tf.compat.v1.pad_9/Pad/paddings"], "attr": {"Tpaddings": {"type": "DT_INT32"}, "T": {"type": "DT_FLOAT"}}}, {"name": "model_129/tf.math.add_111/Add", "op": "_FusedConv2D", "input": ["model_129/tf.compat.v1.pad_9/Pad", "model_129/tf.nn.convolution_96/convolution/filter", "model_129/tf.math.add_111/Add/y"], "device": "/device:CPU:0", "attr": {"num_host_args": {"i": "0"}, "data_format": {"s": "TkhXQw=="}, "filter_format": {"s": "SFdJTw=="}, "strides": {"list": {"i": ["1", "2", "2", "1"]}}, "num_args": {"i": "1"}, "fused_ops": {"list": {"s": ["Qmlhc0FkZA=="]}}, "TArgs": {"list": {"type": ["DT_FLOAT"]}}, "padding": {"s": "VkFMSUQ="}, "use_cudnn_on_gpu": {"b": true}, "leakyrelu_alpha": {"f": 0.2}, "epsilon": {"f": 0.0}, "T": {"type": "DT_FLOAT"}, "explicit_paddings": {"list": {}}, "dilations": {"list": {"i": ["1", "1", "1", "1"]}}}}, {"name": "model_129/tf.math.sigmoid_63/Sigmoid", "op": "Sigmoid", "input": ["model_129/tf.math.add_111/Add"], "attr": {"T": {"type": "DT_FLOAT"}}}, {"name": "model_129/tf.math.multiply_278/Mul", "op": "Mul", "input": ["model_129/tf.math.add_111/Add", "model_129/tf.math.sigmoid_63/Sigmoid"], "attr": {"T": {"type": "DT_FLOAT"}}}, {"name": "model_129/tf.math.add_112/Add", "op": "_FusedConv2D", "input": ["model_129/tf.math.multiply_278/Mul", "model_129/tf.nn.convolution_97/convolution/filter", "model_129/tf.math.add_112/Add/y"], "device": "/device:CPU:0", "attr": {"num_host_args": {"i": "0"}, "data_format": {"s": "TkhXQw=="}, "filter_format": {"s": "SFdJTw=="}, "fused_ops": {"list": {"s": ["Qmlhc0FkZA=="]}}, "num_args": {"i": "1"}, "strides": {"list": {"i": ["1", "1", "1", "1"]}}, "TArgs": {"list": {"type": ["DT_FLOAT"]}}, "padding": {"s": "U0FNRQ=="}, "use_cudnn_on_gpu": {"b": true}, "leakyrelu_alpha": {"f": 0.2}, "epsilon": {"f": 0.0}, "T": {"type": "DT_FLOAT"}, "explicit_paddings": {"list": {}}, "dilations": {"list": {"i": ["1", "1", "1", "1"]}}}}, {"name": "model_129/tf.math.sigmoid_64/Sigmoid", "op": "Sigmoid", "input": ["model_129/tf.math.add_112/Add"], "attr": {"T": {"type": "DT_FLOAT"}}}, {"name": "model_129/tf.math.multiply_282/Mul", "op": "Mul", "input": ["model_129/tf.math.add_112/Add", "model_129/tf.math.sigmoid_64/Sigmoid"], "attr": {"T": {"type": "DT_FLOAT"}}}, {"name": "model_129/tf.strided_slice_20/StridedSlice", "op": "StridedSlice", "input": ["model_129/tf.math.multiply_282/Mul", "model_129/tf.strided_slice_20/ones_like/tensor", "model_129/tf.strided_slice_20/StridedSlice/end", "model_129/tf.strided_slice_20/ones_like"], "attr": {"shrink_axis_mask": {"i": "0"}, "new_axis_mask": {"i": "0"}, "Index": {"type": "DT_INT64"}, "begin_mask": {"i": "15"}, "T": {"type": "DT_FLOAT"}, "end_mask": {"i": "7"}, "ellipsis_mask": {"i": "0"}}}, {"name": "model_129/tf.strided_slice_21/StridedSlice", "op": "StridedSlice", "input": ["model_129/tf.math.multiply_282/Mul", "model_129/tf.strided_slice_21/ones_like/tensor", "model_129/tf.strided_slice_21/StridedSlice/end", "model_129/tf.strided_slice_21/ones_like"], "attr": {"shrink_axis_mask": {"i": "0"}, "new_axis_mask": {"i": "0"}, "Index": {"type": "DT_INT64"}, "begin_mask": {"i": "7"}, "end_mask": {"i": "7"}, "T": {"type": "DT_FLOAT"}, "ellipsis_mask": {"i": "0"}}}, {"name": "model_129/tf.math.add_113/Add", "op": "_FusedConv2D", "input": ["model_129/tf.strided_slice_21/StridedSlice", "model_129/tf.nn.convolution_98/convolution/filter", "model_129/tf.math.add_113/Add/y"], "device": "/device:CPU:0", "attr": {"num_host_args": {"i": "0"}, "data_format": {"s": "TkhXQw=="}, "filter_format": {"s": "SFdJTw=="}, "fused_ops": {"list": {"s": ["Qmlhc0FkZA=="]}}, "num_args": {"i": "1"}, "strides": {"list": {"i": ["1", "1", "1", "1"]}}, "TArgs": {"list": {"type": ["DT_FLOAT"]}}, "padding": {"s": "U0FNRQ=="}, "use_cudnn_on_gpu": {"b": true}, "leakyrelu_alpha": {"f": 0.2}, "epsilon": {"f": 0.0}, "T": {"type": "DT_FLOAT"}, "explicit_paddings": {"list": {}}, "dilations": {"list": {"i": ["1", "1", "1", "1"]}}}}, {"name": "model_129/tf.math.sigmoid_65/Sigmoid", "op": "Sigmoid", "input": ["model_129/tf.math.add_113/Add"], "attr": {"T": {"type": "DT_FLOAT"}}}, {"name": "model_129/tf.math.multiply_286/Mul", "op": "Mul", "input": ["model_129/tf.math.add_113/Add", "model_129/tf.math.sigmoid_65/Sigmoid"], "attr": {"T": {"type": "DT_FLOAT"}}}, {"name": "model_129/tf.math.add_114/Add", "op": "_FusedConv2D", "input": ["model_129/tf.math.multiply_286/Mul", "model_129/tf.nn.convolution_99/convolution/filter", "model_129/tf.math.add_114/Add/y"], "device": "/device:CPU:0", "attr": {"num_host_args": {"i": "0"}, "data_format": {"s": "TkhXQw=="}, "filter_format": {"s": "SFdJTw=="}, "fused_ops": {"list": {"s": ["Qmlhc0FkZA=="]}}, "num_args": {"i": "1"}, "strides": {"list": {"i": ["1", "1", "1", "1"]}}, "TArgs": {"list": {"type": ["DT_FLOAT"]}}, "padding": {"s": "U0FNRQ=="}, "use_cudnn_on_gpu": {"b": true}, "leakyrelu_alpha": {"f": 0.2}, "epsilon": {"f": 0.0}, "T": {"type": "DT_FLOAT"}, "explicit_paddings": {"list": {}}, "dilations": {"list": {"i": ["1", "1", "1", "1"]}}}}, {"name": "model_129/tf.math.sigmoid_66/Sigmoid", "op": "Sigmoid", "input": ["model_129/tf.math.add_114/Add"], "attr": {"T": {"type": "DT_FLOAT"}}}, {"name": "model_129/tf.math.multiply_290/Mul", "op": "Mul", "input": ["model_129/tf.math.add_114/Add", "model_129/tf.math.sigmoid_66/Sigmoid"], "attr": {"T": {"type": "DT_FLOAT"}}}, {"name": "model_129/tf.math.add_116/Add", "op": "AddV2", "input": ["model_129/tf.strided_slice_21/StridedSlice", "model_129/tf.math.multiply_290/Mul"], "attr": {"T": {"type": "DT_FLOAT"}}}, {"name": "model_129/tf.math.add_117/Add", "op": "_FusedConv2D", "input": ["model_129/tf.math.add_116/Add", "model_129/tf.nn.convolution_100/convolution/filter", "model_129/tf.math.add_117/Add/y"], "device": "/device:CPU:0", "attr": {"num_host_args": {"i": "0"}, "data_format": {"s": "TkhXQw=="}, "filter_format": {"s": "SFdJTw=="}, "fused_ops": {"list": {"s": ["Qmlhc0FkZA=="]}}, "num_args": {"i": "1"}, "strides": {"list": {"i": ["1", "1", "1", "1"]}}, "TArgs": {"list": {"type": ["DT_FLOAT"]}}, "padding": {"s": "U0FNRQ=="}, "use_cudnn_on_gpu": {"b": true}, "leakyrelu_alpha": {"f": 0.2}, "epsilon": {"f": 0.0}, "T": {"type": "DT_FLOAT"}, "explicit_paddings": {"list": {}}, "dilations": {"list": {"i": ["1", "1", "1", "1"]}}}}, {"name": "model_129/tf.math.sigmoid_67/Sigmoid", "op": "Sigmoid", "input": ["model_129/tf.math.add_117/Add"], "attr": {"T": {"type": "DT_FLOAT"}}}, {"name": "model_129/tf.math.multiply_296/Mul", "op": "Mul", "input": ["model_129/tf.math.add_117/Add", "model_129/tf.math.sigmoid_67/Sigmoid"], "attr": {"T": {"type": "DT_FLOAT"}}}, {"name": "model_129/tf.math.add_118/Add", "op": "_FusedConv2D", "input": ["model_129/tf.math.multiply_296/Mul", "model_129/tf.nn.convolution_101/convolution/filter", "model_129/tf.math.add_118/Add/y"], "device": "/device:CPU:0", "attr": {"num_host_args": {"i": "0"}, "data_format": {"s": "TkhXQw=="}, "filter_format": {"s": "SFdJTw=="}, "fused_ops": {"list": {"s": ["Qmlhc0FkZA=="]}}, "num_args": {"i": "1"}, "strides": {"list": {"i": ["1", "1", "1", "1"]}}, "TArgs": {"list": {"type": ["DT_FLOAT"]}}, "padding": {"s": "U0FNRQ=="}, "use_cudnn_on_gpu": {"b": true}, "leakyrelu_alpha": {"f": 0.2}, "epsilon": {"f": 0.0}, "T": {"type": "DT_FLOAT"}, "explicit_paddings": {"list": {}}, "dilations": {"list": {"i": ["1", "1", "1", "1"]}}}}, {"name": "model_129/tf.math.sigmoid_68/Sigmoid", "op": "Sigmoid", "input": ["model_129/tf.math.add_118/Add"], "attr": {"T": {"type": "DT_FLOAT"}}}, {"name": "model_129/tf.math.multiply_300/Mul", "op": "Mul", "input": ["model_129/tf.math.add_118/Add", "model_129/tf.math.sigmoid_68/Sigmoid"], "attr": {"T": {"type": "DT_FLOAT"}}}, {"name": "model_129/tf.math.add_120/Add", "op": "AddV2", "input": ["model_129/tf.math.add_116/Add", "model_129/tf.math.multiply_300/Mul"], "attr": {"T": {"type": "DT_FLOAT"}}}, {"name": "model_129/tf.concat_25/concat", "op": "ConcatV2", "input": ["model_129/tf.strided_slice_20/StridedSlice", "model_129/tf.strided_slice_21/StridedSlice", "model_129/tf.math.add_116/Add", "model_129/tf.math.add_120/Add", "model_129/tf.concat_25/concat/axis"], "attr": {"N": {"i": "4"}, "Tidx": {"type": "DT_INT32"}, "T": {"type": "DT_FLOAT"}}}, {"name": "model_129/tf.math.add_123/Add", "op": "_FusedConv2D", "input": ["model_129/tf.concat_25/concat", "model_129/tf.nn.convolution_104/convolution/filter", "model_129/tf.math.add_123/Add/y"], "device": "/device:CPU:0", "attr": {"num_host_args": {"i": "0"}, "data_format": {"s": "TkhXQw=="}, "filter_format": {"s": "SFdJTw=="}, "strides": {"list": {"i": ["1", "1", "1", "1"]}}, "num_args": {"i": "1"}, "fused_ops": {"list": {"s": ["Qmlhc0FkZA=="]}}, "TArgs": {"list": {"type": ["DT_FLOAT"]}}, "padding": {"s": "U0FNRQ=="}, "use_cudnn_on_gpu": {"b": true}, "leakyrelu_alpha": {"f": 0.2}, "epsilon": {"f": 0.0}, "T": {"type": "DT_FLOAT"}, "explicit_paddings": {"list": {}}, "dilations": {"list": {"i": ["1", "1", "1", "1"]}}}}, {"name": "model_129/tf.math.sigmoid_69/Sigmoid", "op": "Sigmoid", "input": ["model_129/tf.math.add_123/Add"], "attr": {"T": {"type": "DT_FLOAT"}}}, {"name": "model_129/tf.math.multiply_306/Mul", "op": "Mul", "input": ["model_129/tf.math.add_123/Add", "model_129/tf.math.sigmoid_69/Sigmoid"], "attr": {"T": {"type": "DT_FLOAT"}}}, {"name": "model_129/tf.compat.v1.pad_10/Pad", "op": "Pad", "input": ["model_129/tf.math.multiply_306/Mul", "model_129/tf.compat.v1.pad_10/Pad/paddings"], "attr": {"Tpaddings": {"type": "DT_INT32"}, "T": {"type": "DT_FLOAT"}}}, {"name": "model_129/tf.math.add_124/Add", "op": "_FusedConv2D", "input": ["model_129/tf.compat.v1.pad_10/Pad", "model_129/tf.nn.convolution_105/convolution/filter", "model_129/tf.math.add_124/Add/y"], "device": "/device:CPU:0", "attr": {"num_host_args": {"i": "0"}, "data_format": {"s": "TkhXQw=="}, "filter_format": {"s": "SFdJTw=="}, "strides": {"list": {"i": ["1", "2", "2", "1"]}}, "num_args": {"i": "1"}, "fused_ops": {"list": {"s": ["Qmlhc0FkZA=="]}}, "TArgs": {"list": {"type": ["DT_FLOAT"]}}, "padding": {"s": "VkFMSUQ="}, "use_cudnn_on_gpu": {"b": true}, "leakyrelu_alpha": {"f": 0.2}, "epsilon": {"f": 0.0}, "T": {"type": "DT_FLOAT"}, "explicit_paddings": {"list": {}}, "dilations": {"list": {"i": ["1", "1", "1", "1"]}}}}, {"name": "model_129/tf.math.sigmoid_70/Sigmoid", "op": "Sigmoid", "input": ["model_129/tf.math.add_124/Add"], "attr": {"T": {"type": "DT_FLOAT"}}}, {"name": "model_129/tf.math.multiply_310/Mul", "op": "Mul", "input": ["model_129/tf.math.add_124/Add", "model_129/tf.math.sigmoid_70/Sigmoid"], "attr": {"T": {"type": "DT_FLOAT"}}}, {"name": "model_129/tf.math.add_125/Add", "op": "_FusedConv2D", "input": ["model_129/tf.math.multiply_310/Mul", "model_129/tf.nn.convolution_106/convolution/filter", "model_129/tf.math.add_125/Add/y"], "device": "/device:CPU:0", "attr": {"num_host_args": {"i": "0"}, "data_format": {"s": "TkhXQw=="}, "filter_format": {"s": "SFdJTw=="}, "fused_ops": {"list": {"s": ["Qmlhc0FkZA=="]}}, "num_args": {"i": "1"}, "strides": {"list": {"i": ["1", "1", "1", "1"]}}, "TArgs": {"list": {"type": ["DT_FLOAT"]}}, "padding": {"s": "U0FNRQ=="}, "use_cudnn_on_gpu": {"b": true}, "leakyrelu_alpha": {"f": 0.2}, "epsilon": {"f": 0.0}, "T": {"type": "DT_FLOAT"}, "explicit_paddings": {"list": {}}, "dilations": {"list": {"i": ["1", "1", "1", "1"]}}}}, {"name": "model_129/tf.math.sigmoid_71/Sigmoid", "op": "Sigmoid", "input": ["model_129/tf.math.add_125/Add"], "attr": {"T": {"type": "DT_FLOAT"}}}, {"name": "model_129/tf.math.multiply_314/Mul", "op": "Mul", "input": ["model_129/tf.math.add_125/Add", "model_129/tf.math.sigmoid_71/Sigmoid"], "attr": {"T": {"type": "DT_FLOAT"}}}, {"name": "model_129/tf.strided_slice_22/StridedSlice", "op": "StridedSlice", "input": ["model_129/tf.math.multiply_314/Mul", "model_129/tf.strided_slice_22/ones_like/tensor", "model_129/tf.strided_slice_22/StridedSlice/end", "model_129/tf.strided_slice_22/ones_like"], "attr": {"shrink_axis_mask": {"i": "0"}, "new_axis_mask": {"i": "0"}, "Index": {"type": "DT_INT64"}, "begin_mask": {"i": "15"}, "T": {"type": "DT_FLOAT"}, "end_mask": {"i": "7"}, "ellipsis_mask": {"i": "0"}}}, {"name": "model_129/tf.strided_slice_23/StridedSlice", "op": "StridedSlice", "input": ["model_129/tf.math.multiply_314/Mul", "model_129/tf.strided_slice_23/ones_like/tensor", "model_129/tf.strided_slice_23/StridedSlice/end", "model_129/tf.strided_slice_23/ones_like"], "attr": {"shrink_axis_mask": {"i": "0"}, "new_axis_mask": {"i": "0"}, "Index": {"type": "DT_INT64"}, "begin_mask": {"i": "7"}, "end_mask": {"i": "7"}, "T": {"type": "DT_FLOAT"}, "ellipsis_mask": {"i": "0"}}}, {"name": "model_129/tf.math.add_128/Add", "op": "_FusedConv2D", "input": ["model_129/tf.strided_slice_23/StridedSlice", "model_129/tf.nn.convolution_109/convolution/filter", "model_129/tf.math.add_128/Add/y"], "device": "/device:CPU:0", "attr": {"num_host_args": {"i": "0"}, "data_format": {"s": "TkhXQw=="}, "filter_format": {"s": "SFdJTw=="}, "fused_ops": {"list": {"s": ["Qmlhc0FkZA=="]}}, "num_args": {"i": "1"}, "strides": {"list": {"i": ["1", "1", "1", "1"]}}, "TArgs": {"list": {"type": ["DT_FLOAT"]}}, "padding": {"s": "U0FNRQ=="}, "use_cudnn_on_gpu": {"b": true}, "leakyrelu_alpha": {"f": 0.2}, "epsilon": {"f": 0.0}, "T": {"type": "DT_FLOAT"}, "explicit_paddings": {"list": {}}, "dilations": {"list": {"i": ["1", "1", "1", "1"]}}}}, {"name": "model_129/tf.math.sigmoid_72/Sigmoid", "op": "Sigmoid", "input": ["model_129/tf.math.add_128/Add"], "attr": {"T": {"type": "DT_FLOAT"}}}, {"name": "model_129/tf.math.multiply_318/Mul", "op": "Mul", "input": ["model_129/tf.math.add_128/Add", "model_129/tf.math.sigmoid_72/Sigmoid"], "attr": {"T": {"type": "DT_FLOAT"}}}, {"name": "model_129/tf.math.add_131/Add", "op": "_FusedConv2D", "input": ["model_129/tf.math.multiply_318/Mul", "model_129/tf.nn.convolution_112/convolution/filter", "model_129/tf.math.add_131/Add/y"], "device": "/device:CPU:0", "attr": {"num_host_args": {"i": "0"}, "data_format": {"s": "TkhXQw=="}, "filter_format": {"s": "SFdJTw=="}, "strides": {"list": {"i": ["1", "1", "1", "1"]}}, "num_args": {"i": "1"}, "fused_ops": {"list": {"s": ["Qmlhc0FkZA=="]}}, "TArgs": {"list": {"type": ["DT_FLOAT"]}}, "padding": {"s": "U0FNRQ=="}, "use_cudnn_on_gpu": {"b": true}, "leakyrelu_alpha": {"f": 0.2}, "epsilon": {"f": 0.0}, "T": {"type": "DT_FLOAT"}, "explicit_paddings": {"list": {}}, "dilations": {"list": {"i": ["1", "1", "1", "1"]}}}}, {"name": "model_129/tf.math.sigmoid_73/Sigmoid", "op": "Sigmoid", "input": ["model_129/tf.math.add_131/Add"], "attr": {"T": {"type": "DT_FLOAT"}}}, {"name": "model_129/tf.math.multiply_322/Mul", "op": "Mul", "input": ["model_129/tf.math.add_131/Add", "model_129/tf.math.sigmoid_73/Sigmoid"], "attr": {"T": {"type": "DT_FLOAT"}}}, {"name": "model_129/tf.math.add_133/Add", "op": "AddV2", "input": ["model_129/tf.strided_slice_23/StridedSlice", "model_129/tf.math.multiply_322/Mul"], "attr": {"T": {"type": "DT_FLOAT"}}}, {"name": "model_129/tf.math.add_136/Add", "op": "_FusedConv2D", "input": ["model_129/tf.math.add_133/Add", "model_129/tf.nn.convolution_115/convolution/filter", "model_129/tf.math.add_136/Add/y"], "device": "/device:CPU:0", "attr": {"num_host_args": {"i": "0"}, "data_format": {"s": "TkhXQw=="}, "filter_format": {"s": "SFdJTw=="}, "fused_ops": {"list": {"s": ["Qmlhc0FkZA=="]}}, "num_args": {"i": "1"}, "strides": {"list": {"i": ["1", "1", "1", "1"]}}, "TArgs": {"list": {"type": ["DT_FLOAT"]}}, "padding": {"s": "U0FNRQ=="}, "use_cudnn_on_gpu": {"b": true}, "leakyrelu_alpha": {"f": 0.2}, "epsilon": {"f": 0.0}, "T": {"type": "DT_FLOAT"}, "explicit_paddings": {"list": {}}, "dilations": {"list": {"i": ["1", "1", "1", "1"]}}}}, {"name": "model_129/tf.math.sigmoid_74/Sigmoid", "op": "Sigmoid", "input": ["model_129/tf.math.add_136/Add"], "attr": {"T": {"type": "DT_FLOAT"}}}, {"name": "model_129/tf.math.multiply_328/Mul", "op": "Mul", "input": ["model_129/tf.math.add_136/Add", "model_129/tf.math.sigmoid_74/Sigmoid"], "attr": {"T": {"type": "DT_FLOAT"}}}, {"name": "model_129/tf.math.add_139/Add", "op": "_FusedConv2D", "input": ["model_129/tf.math.multiply_328/Mul", "model_129/tf.nn.convolution_118/convolution/filter", "model_129/tf.math.add_139/Add/y"], "device": "/device:CPU:0", "attr": {"num_host_args": {"i": "0"}, "data_format": {"s": "TkhXQw=="}, "filter_format": {"s": "SFdJTw=="}, "fused_ops": {"list": {"s": ["Qmlhc0FkZA=="]}}, "num_args": {"i": "1"}, "strides": {"list": {"i": ["1", "1", "1", "1"]}}, "TArgs": {"list": {"type": ["DT_FLOAT"]}}, "padding": {"s": "U0FNRQ=="}, "use_cudnn_on_gpu": {"b": true}, "leakyrelu_alpha": {"f": 0.2}, "epsilon": {"f": 0.0}, "T": {"type": "DT_FLOAT"}, "explicit_paddings": {"list": {}}, "dilations": {"list": {"i": ["1", "1", "1", "1"]}}}}, {"name": "model_129/tf.math.sigmoid_75/Sigmoid", "op": "Sigmoid", "input": ["model_129/tf.math.add_139/Add"], "attr": {"T": {"type": "DT_FLOAT"}}}, {"name": "model_129/tf.math.multiply_332/Mul", "op": "Mul", "input": ["model_129/tf.math.add_139/Add", "model_129/tf.math.sigmoid_75/Sigmoid"], "attr": {"T": {"type": "DT_FLOAT"}}}, {"name": "model_129/tf.math.add_141/Add", "op": "AddV2", "input": ["model_129/tf.math.add_133/Add", "model_129/tf.math.multiply_332/Mul"], "attr": {"T": {"type": "DT_FLOAT"}}}, {"name": "model_129/tf.concat_26/concat", "op": "ConcatV2", "input": ["model_129/tf.strided_slice_22/StridedSlice", "model_129/tf.strided_slice_23/StridedSlice", "model_129/tf.math.add_133/Add", "model_129/tf.math.add_141/Add", "model_129/tf.concat_26/concat/axis"], "attr": {"N": {"i": "4"}, "Tidx": {"type": "DT_INT32"}, "T": {"type": "DT_FLOAT"}}}, {"name": "model_129/tf.math.add_142/Add", "op": "_FusedConv2D", "input": ["model_129/tf.concat_26/concat", "model_129/tf.nn.convolution_119/convolution/filter", "model_129/tf.math.add_142/Add/y"], "device": "/device:CPU:0", "attr": {"num_host_args": {"i": "0"}, "data_format": {"s": "TkhXQw=="}, "filter_format": {"s": "SFdJTw=="}, "fused_ops": {"list": {"s": ["Qmlhc0FkZA=="]}}, "num_args": {"i": "1"}, "strides": {"list": {"i": ["1", "1", "1", "1"]}}, "TArgs": {"list": {"type": ["DT_FLOAT"]}}, "padding": {"s": "U0FNRQ=="}, "use_cudnn_on_gpu": {"b": true}, "leakyrelu_alpha": {"f": 0.2}, "epsilon": {"f": 0.0}, "T": {"type": "DT_FLOAT"}, "explicit_paddings": {"list": {}}, "dilations": {"list": {"i": ["1", "1", "1", "1"]}}}}, {"name": "model_129/tf.math.sigmoid_76/Sigmoid", "op": "Sigmoid", "input": ["model_129/tf.math.add_142/Add"], "attr": {"T": {"type": "DT_FLOAT"}}}, {"name": "model_129/tf.math.multiply_338/Mul", "op": "Mul", "input": ["model_129/tf.math.add_142/Add", "model_129/tf.math.sigmoid_76/Sigmoid"], "attr": {"T": {"type": "DT_FLOAT"}}}, {"name": "model_129/tf.compat.v1.pad_11/Pad", "op": "Pad", "input": ["model_129/tf.math.multiply_338/Mul", "model_129/tf.compat.v1.pad_11/Pad/paddings"], "attr": {"Tpaddings": {"type": "DT_INT32"}, "T": {"type": "DT_FLOAT"}}}, {"name": "model_129/tf.math.add_143/Add", "op": "_FusedConv2D", "input": ["model_129/tf.compat.v1.pad_11/Pad", "model_129/tf.nn.convolution_120/convolution/filter", "model_129/tf.math.add_143/Add/y"], "device": "/device:CPU:0", "attr": {"num_host_args": {"i": "0"}, "data_format": {"s": "TkhXQw=="}, "filter_format": {"s": "SFdJTw=="}, "strides": {"list": {"i": ["1", "2", "2", "1"]}}, "num_args": {"i": "1"}, "fused_ops": {"list": {"s": ["Qmlhc0FkZA=="]}}, "TArgs": {"list": {"type": ["DT_FLOAT"]}}, "padding": {"s": "VkFMSUQ="}, "use_cudnn_on_gpu": {"b": true}, "leakyrelu_alpha": {"f": 0.2}, "epsilon": {"f": 0.0}, "T": {"type": "DT_FLOAT"}, "explicit_paddings": {"list": {}}, "dilations": {"list": {"i": ["1", "1", "1", "1"]}}}}, {"name": "model_129/tf.math.sigmoid_77/Sigmoid", "op": "Sigmoid", "input": ["model_129/tf.math.add_143/Add"], "attr": {"T": {"type": "DT_FLOAT"}}}, {"name": "model_129/tf.math.multiply_342/Mul", "op": "Mul", "input": ["model_129/tf.math.add_143/Add", "model_129/tf.math.sigmoid_77/Sigmoid"], "attr": {"T": {"type": "DT_FLOAT"}}}, {"name": "model_129/tf.math.add_144/Add", "op": "_FusedConv2D", "input": ["model_129/tf.math.multiply_342/Mul", "model_129/tf.nn.convolution_121/convolution/filter", "model_129/tf.math.add_144/Add/y"], "device": "/device:CPU:0", "attr": {"num_host_args": {"i": "0"}, "data_format": {"s": "TkhXQw=="}, "filter_format": {"s": "SFdJTw=="}, "fused_ops": {"list": {"s": ["Qmlhc0FkZA=="]}}, "num_args": {"i": "1"}, "strides": {"list": {"i": ["1", "1", "1", "1"]}}, "TArgs": {"list": {"type": ["DT_FLOAT"]}}, "padding": {"s": "U0FNRQ=="}, "use_cudnn_on_gpu": {"b": true}, "leakyrelu_alpha": {"f": 0.2}, "epsilon": {"f": 0.0}, "T": {"type": "DT_FLOAT"}, "explicit_paddings": {"list": {}}, "dilations": {"list": {"i": ["1", "1", "1", "1"]}}}}, {"name": "model_129/tf.math.sigmoid_78/Sigmoid", "op": "Sigmoid", "input": ["model_129/tf.math.add_144/Add"], "attr": {"T": {"type": "DT_FLOAT"}}}, {"name": "model_129/tf.math.multiply_346/Mul", "op": "Mul", "input": ["model_129/tf.math.add_144/Add", "model_129/tf.math.sigmoid_78/Sigmoid"], "attr": {"T": {"type": "DT_FLOAT"}}}, {"name": "model_129/tf.strided_slice_24/StridedSlice", "op": "StridedSlice", "input": ["model_129/tf.math.multiply_346/Mul", "model_129/tf.strided_slice_24/ones_like/tensor", "model_129/tf.strided_slice_24/StridedSlice/end", "model_129/tf.strided_slice_24/ones_like"], "attr": {"shrink_axis_mask": {"i": "0"}, "new_axis_mask": {"i": "0"}, "Index": {"type": "DT_INT64"}, "begin_mask": {"i": "15"}, "end_mask": {"i": "7"}, "T": {"type": "DT_FLOAT"}, "ellipsis_mask": {"i": "0"}}}, {"name": "model_129/tf.strided_slice_25/StridedSlice", "op": "StridedSlice", "input": ["model_129/tf.math.multiply_346/Mul", "model_129/tf.strided_slice_25/ones_like/tensor", "model_129/tf.strided_slice_25/StridedSlice/end", "model_129/tf.strided_slice_25/ones_like"], "attr": {"shrink_axis_mask": {"i": "0"}, "new_axis_mask": {"i": "0"}, "Index": {"type": "DT_INT64"}, "begin_mask": {"i": "7"}, "T": {"type": "DT_FLOAT"}, "end_mask": {"i": "7"}, "ellipsis_mask": {"i": "0"}}}, {"name": "model_129/tf.math.add_145/Add", "op": "_FusedConv2D", "input": ["model_129/tf.strided_slice_25/StridedSlice", "model_129/tf.nn.convolution_122/convolution/filter", "model_129/tf.math.add_145/Add/y"], "device": "/device:CPU:0", "attr": {"num_host_args": {"i": "0"}, "data_format": {"s": "TkhXQw=="}, "filter_format": {"s": "SFdJTw=="}, "strides": {"list": {"i": ["1", "1", "1", "1"]}}, "num_args": {"i": "1"}, "fused_ops": {"list": {"s": ["Qmlhc0FkZA=="]}}, "TArgs": {"list": {"type": ["DT_FLOAT"]}}, "padding": {"s": "U0FNRQ=="}, "use_cudnn_on_gpu": {"b": true}, "leakyrelu_alpha": {"f": 0.2}, "epsilon": {"f": 0.0}, "T": {"type": "DT_FLOAT"}, "explicit_paddings": {"list": {}}, "dilations": {"list": {"i": ["1", "1", "1", "1"]}}}}, {"name": "model_129/tf.math.sigmoid_79/Sigmoid", "op": "Sigmoid", "input": ["model_129/tf.math.add_145/Add"], "attr": {"T": {"type": "DT_FLOAT"}}}, {"name": "model_129/tf.math.multiply_350/Mul", "op": "Mul", "input": ["model_129/tf.math.add_145/Add", "model_129/tf.math.sigmoid_79/Sigmoid"], "attr": {"T": {"type": "DT_FLOAT"}}}, {"name": "model_129/tf.math.add_146/Add", "op": "_FusedConv2D", "input": ["model_129/tf.math.multiply_350/Mul", "model_129/tf.nn.convolution_123/convolution/filter", "model_129/tf.math.add_146/Add/y"], "device": "/device:CPU:0", "attr": {"num_host_args": {"i": "0"}, "data_format": {"s": "TkhXQw=="}, "filter_format": {"s": "SFdJTw=="}, "fused_ops": {"list": {"s": ["Qmlhc0FkZA=="]}}, "num_args": {"i": "1"}, "strides": {"list": {"i": ["1", "1", "1", "1"]}}, "TArgs": {"list": {"type": ["DT_FLOAT"]}}, "padding": {"s": "U0FNRQ=="}, "use_cudnn_on_gpu": {"b": true}, "leakyrelu_alpha": {"f": 0.2}, "epsilon": {"f": 0.0}, "T": {"type": "DT_FLOAT"}, "explicit_paddings": {"list": {}}, "dilations": {"list": {"i": ["1", "1", "1", "1"]}}}}, {"name": "model_129/tf.math.sigmoid_80/Sigmoid", "op": "Sigmoid", "input": ["model_129/tf.math.add_146/Add"], "attr": {"T": {"type": "DT_FLOAT"}}}, {"name": "model_129/tf.math.multiply_354/Mul", "op": "Mul", "input": ["model_129/tf.math.add_146/Add", "model_129/tf.math.sigmoid_80/Sigmoid"], "attr": {"T": {"type": "DT_FLOAT"}}}, {"name": "model_129/tf.math.add_148/Add", "op": "AddV2", "input": ["model_129/tf.strided_slice_25/StridedSlice", "model_129/tf.math.multiply_354/Mul"], "attr": {"T": {"type": "DT_FLOAT"}}}, {"name": "model_129/tf.concat_27/concat", "op": "ConcatV2", "input": ["model_129/tf.strided_slice_24/StridedSlice", "model_129/tf.strided_slice_25/StridedSlice", "model_129/tf.math.add_148/Add", "model_129/tf.concat_27/concat/axis"], "attr": {"N": {"i": "3"}, "Tidx": {"type": "DT_INT32"}, "T": {"type": "DT_FLOAT"}}}, {"name": "model_129/tf.math.add_149/Add", "op": "_FusedConv2D", "input": ["model_129/tf.concat_27/concat", "model_129/tf.nn.convolution_124/convolution/filter", "model_129/tf.math.add_149/Add/y"], "device": "/device:CPU:0", "attr": {"num_host_args": {"i": "0"}, "data_format": {"s": "TkhXQw=="}, "filter_format": {"s": "SFdJTw=="}, "fused_ops": {"list": {"s": ["Qmlhc0FkZA=="]}}, "num_args": {"i": "1"}, "strides": {"list": {"i": ["1", "1", "1", "1"]}}, "TArgs": {"list": {"type": ["DT_FLOAT"]}}, "padding": {"s": "U0FNRQ=="}, "use_cudnn_on_gpu": {"b": true}, "leakyrelu_alpha": {"f": 0.2}, "epsilon": {"f": 0.0}, "T": {"type": "DT_FLOAT"}, "explicit_paddings": {"list": {}}, "dilations": {"list": {"i": ["1", "1", "1", "1"]}}}}, {"name": "model_129/tf.math.sigmoid_81/Sigmoid", "op": "Sigmoid", "input": ["model_129/tf.math.add_149/Add"], "attr": {"T": {"type": "DT_FLOAT"}}}, {"name": "model_129/tf.math.multiply_360/Mul", "op": "Mul", "input": ["model_129/tf.math.add_149/Add", "model_129/tf.math.sigmoid_81/Sigmoid"], "attr": {"T": {"type": "DT_FLOAT"}}}, {"name": "model_129/tf.math.add_150/Add", "op": "_FusedConv2D", "input": ["model_129/tf.math.multiply_360/Mul", "model_129/tf.nn.convolution_125/convolution/filter", "model_129/tf.math.add_150/Add/y"], "device": "/device:CPU:0", "attr": {"num_host_args": {"i": "0"}, "data_format": {"s": "TkhXQw=="}, "filter_format": {"s": "SFdJTw=="}, "fused_ops": {"list": {"s": ["Qmlhc0FkZA=="]}}, "num_args": {"i": "1"}, "strides": {"list": {"i": ["1", "1", "1", "1"]}}, "TArgs": {"list": {"type": ["DT_FLOAT"]}}, "padding": {"s": "U0FNRQ=="}, "use_cudnn_on_gpu": {"b": true}, "leakyrelu_alpha": {"f": 0.2}, "epsilon": {"f": 0.0}, "T": {"type": "DT_FLOAT"}, "explicit_paddings": {"list": {}}, "dilations": {"list": {"i": ["1", "1", "1", "1"]}}}}, {"name": "model_129/tf.compat.v1.nn.pool_3/max_pool", "op": "MaxPool", "input": ["model_129/tf.math.add_150/Add"], "attr": {"ksize": {"list": {"i": ["1", "5", "5", "1"]}}, "data_format": {"s": "TkhXQw=="}, "T": {"type": "DT_FLOAT"}, "explicit_paddings": {"list": {}}, "padding": {"s": "U0FNRQ=="}, "strides": {"list": {"i": ["1", "1", "1", "1"]}}}}, {"name": "model_129/tf.compat.v1.nn.pool_4/max_pool", "op": "MaxPool", "input": ["model_129/tf.compat.v1.nn.pool_3/max_pool"], "attr": {"ksize": {"list": {"i": ["1", "5", "5", "1"]}}, "data_format": {"s": "TkhXQw=="}, "T": {"type": "DT_FLOAT"}, "explicit_paddings": {"list": {}}, "padding": {"s": "U0FNRQ=="}, "strides": {"list": {"i": ["1", "1", "1", "1"]}}}}, {"name": "model_129/tf.compat.v1.nn.pool_5/max_pool", "op": "MaxPool", "input": ["model_129/tf.compat.v1.nn.pool_4/max_pool"], "attr": {"padding": {"s": "U0FNRQ=="}, "data_format": {"s": "TkhXQw=="}, "T": {"type": "DT_FLOAT"}, "explicit_paddings": {"list": {}}, "ksize": {"list": {"i": ["1", "5", "5", "1"]}}, "strides": {"list": {"i": ["1", "1", "1", "1"]}}}}, {"name": "model_129/tf.concat_28/concat", "op": "ConcatV2", "input": ["model_129/tf.math.add_150/Add", "model_129/tf.compat.v1.nn.pool_3/max_pool", "model_129/tf.compat.v1.nn.pool_4/max_pool", "model_129/tf.compat.v1.nn.pool_5/max_pool", "model_129/tf.concat_28/concat/axis"], "attr": {"N": {"i": "4"}, "T": {"type": "DT_FLOAT"}, "Tidx": {"type": "DT_INT32"}}}, {"name": "model_129/tf.math.add_151/Add", "op": "_FusedConv2D", "input": ["model_129/tf.concat_28/concat", "model_129/tf.nn.convolution_126/convolution/filter", "model_129/tf.math.add_151/Add/y"], "device": "/device:CPU:0", "attr": {"num_host_args": {"i": "0"}, "data_format": {"s": "TkhXQw=="}, "filter_format": {"s": "SFdJTw=="}, "strides": {"list": {"i": ["1", "1", "1", "1"]}}, "num_args": {"i": "1"}, "fused_ops": {"list": {"s": ["Qmlhc0FkZA=="]}}, "TArgs": {"list": {"type": ["DT_FLOAT"]}}, "padding": {"s": "U0FNRQ=="}, "use_cudnn_on_gpu": {"b": true}, "leakyrelu_alpha": {"f": 0.2}, "epsilon": {"f": 0.0}, "T": {"type": "DT_FLOAT"}, "explicit_paddings": {"list": {}}, "dilations": {"list": {"i": ["1", "1", "1", "1"]}}}}, {"name": "model_129/tf.math.sigmoid_82/Sigmoid", "op": "Sigmoid", "input": ["model_129/tf.math.add_151/Add"], "attr": {"T": {"type": "DT_FLOAT"}}}, {"name": "model_129/tf.math.multiply_364/Mul", "op": "Mul", "input": ["model_129/tf.math.add_151/Add", "model_129/tf.math.sigmoid_82/Sigmoid"], "attr": {"T": {"type": "DT_FLOAT"}}}, {"name": "model_129/tf.image.resize_2/resize/ResizeNearestNeighbor", "op": "ResizeNearestNeighbor", "input": ["model_129/tf.math.multiply_364/Mul", "model_129/tf.image.resize_2/resize/size"], "attr": {"T": {"type": "DT_FLOAT"}, "align_corners": {"b": false}, "half_pixel_centers": {"b": true}}}, {"name": "model_129/tf.concat_29/concat", "op": "ConcatV2", "input": ["model_129/tf.image.resize_2/resize/ResizeNearestNeighbor", "model_129/tf.math.multiply_338/Mul", "model_129/tf.concat_29/concat/axis"], "attr": {"N": {"i": "2"}, "T": {"type": "DT_FLOAT"}, "Tidx": {"type": "DT_INT32"}}}, {"name": "model_129/tf.math.add_152/Add", "op": "_FusedConv2D", "input": ["model_129/tf.concat_29/concat", "model_129/tf.nn.convolution_127/convolution/filter", "model_129/tf.math.add_152/Add/y"], "device": "/device:CPU:0", "attr": {"num_host_args": {"i": "0"}, "data_format": {"s": "TkhXQw=="}, "filter_format": {"s": "SFdJTw=="}, "fused_ops": {"list": {"s": ["Qmlhc0FkZA=="]}}, "num_args": {"i": "1"}, "strides": {"list": {"i": ["1", "1", "1", "1"]}}, "TArgs": {"list": {"type": ["DT_FLOAT"]}}, "padding": {"s": "U0FNRQ=="}, "use_cudnn_on_gpu": {"b": true}, "leakyrelu_alpha": {"f": 0.2}, "epsilon": {"f": 0.0}, "T": {"type": "DT_FLOAT"}, "explicit_paddings": {"list": {}}, "dilations": {"list": {"i": ["1", "1", "1", "1"]}}}}, {"name": "model_129/tf.math.sigmoid_83/Sigmoid", "op": "Sigmoid", "input": ["model_129/tf.math.add_152/Add"], "attr": {"T": {"type": "DT_FLOAT"}}}, {"name": "model_129/tf.math.multiply_368/Mul", "op": "Mul", "input": ["model_129/tf.math.add_152/Add", "model_129/tf.math.sigmoid_83/Sigmoid"], "attr": {"T": {"type": "DT_FLOAT"}}}, {"name": "model_129/tf.strided_slice_26/StridedSlice", "op": "StridedSlice", "input": ["model_129/tf.math.multiply_368/Mul", "model_129/tf.strided_slice_26/ones_like/tensor", "model_129/tf.strided_slice_26/StridedSlice/end", "model_129/tf.strided_slice_26/ones_like"], "attr": {"shrink_axis_mask": {"i": "0"}, "new_axis_mask": {"i": "0"}, "Index": {"type": "DT_INT64"}, "begin_mask": {"i": "15"}, "T": {"type": "DT_FLOAT"}, "end_mask": {"i": "7"}, "ellipsis_mask": {"i": "0"}}}, {"name": "model_129/tf.strided_slice_27/StridedSlice", "op": "StridedSlice", "input": ["model_129/tf.math.multiply_368/Mul", "model_129/tf.strided_slice_27/ones_like/tensor", "model_129/tf.strided_slice_27/StridedSlice/end", "model_129/tf.strided_slice_27/ones_like"], "attr": {"shrink_axis_mask": {"i": "0"}, "new_axis_mask": {"i": "0"}, "Index": {"type": "DT_INT64"}, "begin_mask": {"i": "7"}, "end_mask": {"i": "7"}, "T": {"type": "DT_FLOAT"}, "ellipsis_mask": {"i": "0"}}}, {"name": "model_129/tf.math.add_155/Add", "op": "_FusedConv2D", "input": ["model_129/tf.strided_slice_27/StridedSlice", "model_129/tf.nn.convolution_130/convolution/filter", "model_129/tf.math.add_155/Add/y"], "device": "/device:CPU:0", "attr": {"num_host_args": {"i": "0"}, "data_format": {"s": "TkhXQw=="}, "filter_format": {"s": "SFdJTw=="}, "strides": {"list": {"i": ["1", "1", "1", "1"]}}, "num_args": {"i": "1"}, "fused_ops": {"list": {"s": ["Qmlhc0FkZA=="]}}, "TArgs": {"list": {"type": ["DT_FLOAT"]}}, "padding": {"s": "U0FNRQ=="}, "use_cudnn_on_gpu": {"b": true}, "leakyrelu_alpha": {"f": 0.2}, "epsilon": {"f": 0.0}, "T": {"type": "DT_FLOAT"}, "explicit_paddings": {"list": {}}, "dilations": {"list": {"i": ["1", "1", "1", "1"]}}}}, {"name": "model_129/tf.math.sigmoid_84/Sigmoid", "op": "Sigmoid", "input": ["model_129/tf.math.add_155/Add"], "attr": {"T": {"type": "DT_FLOAT"}}}, {"name": "model_129/tf.math.multiply_372/Mul", "op": "Mul", "input": ["model_129/tf.math.add_155/Add", "model_129/tf.math.sigmoid_84/Sigmoid"], "attr": {"T": {"type": "DT_FLOAT"}}}, {"name": "model_129/tf.math.add_158/Add", "op": "_FusedConv2D", "input": ["model_129/tf.math.multiply_372/Mul", "model_129/tf.nn.convolution_133/convolution/filter", "model_129/tf.math.add_158/Add/y"], "device": "/device:CPU:0", "attr": {"num_host_args": {"i": "0"}, "data_format": {"s": "TkhXQw=="}, "filter_format": {"s": "SFdJTw=="}, "fused_ops": {"list": {"s": ["Qmlhc0FkZA=="]}}, "num_args": {"i": "1"}, "strides": {"list": {"i": ["1", "1", "1", "1"]}}, "TArgs": {"list": {"type": ["DT_FLOAT"]}}, "padding": {"s": "U0FNRQ=="}, "use_cudnn_on_gpu": {"b": true}, "leakyrelu_alpha": {"f": 0.2}, "epsilon": {"f": 0.0}, "T": {"type": "DT_FLOAT"}, "explicit_paddings": {"list": {}}, "dilations": {"list": {"i": ["1", "1", "1", "1"]}}}}, {"name": "model_129/tf.math.sigmoid_85/Sigmoid", "op": "Sigmoid", "input": ["model_129/tf.math.add_158/Add"], "attr": {"T": {"type": "DT_FLOAT"}}}, {"name": "model_129/tf.math.multiply_376/Mul", "op": "Mul", "input": ["model_129/tf.math.add_158/Add", "model_129/tf.math.sigmoid_85/Sigmoid"], "attr": {"T": {"type": "DT_FLOAT"}}}, {"name": "model_129/tf.concat_30/concat", "op": "ConcatV2", "input": ["model_129/tf.strided_slice_26/StridedSlice", "model_129/tf.strided_slice_27/StridedSlice", "model_129/tf.math.multiply_376/Mul", "model_129/tf.concat_30/concat/axis"], "attr": {"N": {"i": "3"}, "T": {"type": "DT_FLOAT"}, "Tidx": {"type": "DT_INT32"}}}, {"name": "model_129/tf.math.add_159/Add", "op": "_FusedConv2D", "input": ["model_129/tf.concat_30/concat", "model_129/tf.nn.convolution_134/convolution/filter", "model_129/tf.math.add_159/Add/y"], "device": "/device:CPU:0", "attr": {"num_host_args": {"i": "0"}, "data_format": {"s": "TkhXQw=="}, "filter_format": {"s": "SFdJTw=="}, "fused_ops": {"list": {"s": ["Qmlhc0FkZA=="]}}, "num_args": {"i": "1"}, "strides": {"list": {"i": ["1", "1", "1", "1"]}}, "TArgs": {"list": {"type": ["DT_FLOAT"]}}, "padding": {"s": "U0FNRQ=="}, "use_cudnn_on_gpu": {"b": true}, "leakyrelu_alpha": {"f": 0.2}, "epsilon": {"f": 0.0}, "T": {"type": "DT_FLOAT"}, "explicit_paddings": {"list": {}}, "dilations": {"list": {"i": ["1", "1", "1", "1"]}}}}, {"name": "model_129/tf.math.sigmoid_86/Sigmoid", "op": "Sigmoid", "input": ["model_129/tf.math.add_159/Add"], "attr": {"T": {"type": "DT_FLOAT"}}}, {"name": "model_129/tf.math.multiply_380/Mul", "op": "Mul", "input": ["model_129/tf.math.add_159/Add", "model_129/tf.math.sigmoid_86/Sigmoid"], "attr": {"T": {"type": "DT_FLOAT"}}}, {"name": "model_129/tf.image.resize_3/resize/ResizeNearestNeighbor", "op": "ResizeNearestNeighbor", "input": ["model_129/tf.math.multiply_380/Mul", "model_129/tf.image.resize_3/resize/size"], "attr": {"T": {"type": "DT_FLOAT"}, "align_corners": {"b": false}, "half_pixel_centers": {"b": true}}}, {"name": "model_129/tf.concat_33/concat", "op": "ConcatV2", "input": ["model_129/tf.image.resize_3/resize/ResizeNearestNeighbor", "model_129/tf.math.multiply_306/Mul", "model_129/tf.concat_33/concat/axis"], "attr": {"N": {"i": "2"}, "Tidx": {"type": "DT_INT32"}, "T": {"type": "DT_FLOAT"}}}, {"name": "model_129/tf.math.add_160/Add", "op": "_FusedConv2D", "input": ["model_129/tf.concat_33/concat", "model_129/tf.nn.convolution_135/convolution/filter", "model_129/tf.math.add_160/Add/y"], "device": "/device:CPU:0", "attr": {"num_host_args": {"i": "0"}, "data_format": {"s": "TkhXQw=="}, "filter_format": {"s": "SFdJTw=="}, "strides": {"list": {"i": ["1", "1", "1", "1"]}}, "num_args": {"i": "1"}, "fused_ops": {"list": {"s": ["Qmlhc0FkZA=="]}}, "TArgs": {"list": {"type": ["DT_FLOAT"]}}, "padding": {"s": "U0FNRQ=="}, "use_cudnn_on_gpu": {"b": true}, "leakyrelu_alpha": {"f": 0.2}, "epsilon": {"f": 0.0}, "T": {"type": "DT_FLOAT"}, "explicit_paddings": {"list": {}}, "dilations": {"list": {"i": ["1", "1", "1", "1"]}}}}, {"name": "model_129/tf.math.sigmoid_87/Sigmoid", "op": "Sigmoid", "input": ["model_129/tf.math.add_160/Add"], "attr": {"T": {"type": "DT_FLOAT"}}}, {"name": "model_129/tf.math.multiply_384/Mul", "op": "Mul", "input": ["model_129/tf.math.add_160/Add", "model_129/tf.math.sigmoid_87/Sigmoid"], "attr": {"T": {"type": "DT_FLOAT"}}}, {"name": "model_129/tf.strided_slice_28/StridedSlice", "op": "StridedSlice", "input": ["model_129/tf.math.multiply_384/Mul", "model_129/tf.strided_slice_28/ones_like/tensor", "model_129/tf.strided_slice_28/StridedSlice/end", "model_129/tf.strided_slice_28/ones_like"], "attr": {"shrink_axis_mask": {"i": "0"}, "new_axis_mask": {"i": "0"}, "Index": {"type": "DT_INT64"}, "begin_mask": {"i": "15"}, "end_mask": {"i": "7"}, "T": {"type": "DT_FLOAT"}, "ellipsis_mask": {"i": "0"}}}, {"name": "model_129/tf.strided_slice_29/StridedSlice", "op": "StridedSlice", "input": ["model_129/tf.math.multiply_384/Mul", "model_129/tf.strided_slice_29/ones_like/tensor", "model_129/tf.strided_slice_29/StridedSlice/end", "model_129/tf.strided_slice_29/ones_like"], "attr": {"shrink_axis_mask": {"i": "0"}, "new_axis_mask": {"i": "0"}, "Index": {"type": "DT_INT64"}, "begin_mask": {"i": "7"}, "end_mask": {"i": "7"}, "T": {"type": "DT_FLOAT"}, "ellipsis_mask": {"i": "0"}}}, {"name": "model_129/tf.math.add_161/Add", "op": "_FusedConv2D", "input": ["model_129/tf.strided_slice_29/StridedSlice", "model_129/tf.nn.convolution_136/convolution/filter", "model_129/tf.math.add_161/Add/y"], "device": "/device:CPU:0", "attr": {"num_host_args": {"i": "0"}, "data_format": {"s": "TkhXQw=="}, "filter_format": {"s": "SFdJTw=="}, "fused_ops": {"list": {"s": ["Qmlhc0FkZA=="]}}, "num_args": {"i": "1"}, "strides": {"list": {"i": ["1", "1", "1", "1"]}}, "TArgs": {"list": {"type": ["DT_FLOAT"]}}, "padding": {"s": "U0FNRQ=="}, "use_cudnn_on_gpu": {"b": true}, "leakyrelu_alpha": {"f": 0.2}, "epsilon": {"f": 0.0}, "T": {"type": "DT_FLOAT"}, "explicit_paddings": {"list": {}}, "dilations": {"list": {"i": ["1", "1", "1", "1"]}}}}, {"name": "model_129/tf.math.sigmoid_88/Sigmoid", "op": "Sigmoid", "input": ["model_129/tf.math.add_161/Add"], "attr": {"T": {"type": "DT_FLOAT"}}}, {"name": "model_129/tf.math.multiply_388/Mul", "op": "Mul", "input": ["model_129/tf.math.add_161/Add", "model_129/tf.math.sigmoid_88/Sigmoid"], "attr": {"T": {"type": "DT_FLOAT"}}}, {"name": "model_129/tf.math.add_162/Add", "op": "_FusedConv2D", "input": ["model_129/tf.math.multiply_388/Mul", "model_129/tf.nn.convolution_137/convolution/filter", "model_129/tf.math.add_162/Add/y"], "device": "/device:CPU:0", "attr": {"num_host_args": {"i": "0"}, "data_format": {"s": "TkhXQw=="}, "filter_format": {"s": "SFdJTw=="}, "fused_ops": {"list": {"s": ["Qmlhc0FkZA=="]}}, "num_args": {"i": "1"}, "strides": {"list": {"i": ["1", "1", "1", "1"]}}, "TArgs": {"list": {"type": ["DT_FLOAT"]}}, "padding": {"s": "U0FNRQ=="}, "use_cudnn_on_gpu": {"b": true}, "leakyrelu_alpha": {"f": 0.2}, "epsilon": {"f": 0.0}, "T": {"type": "DT_FLOAT"}, "explicit_paddings": {"list": {}}, "dilations": {"list": {"i": ["1", "1", "1", "1"]}}}}, {"name": "model_129/tf.math.sigmoid_89/Sigmoid", "op": "Sigmoid", "input": ["model_129/tf.math.add_162/Add"], "attr": {"T": {"type": "DT_FLOAT"}}}, {"name": "model_129/tf.math.multiply_392/Mul", "op": "Mul", "input": ["model_129/tf.math.add_162/Add", "model_129/tf.math.sigmoid_89/Sigmoid"], "attr": {"T": {"type": "DT_FLOAT"}}}, {"name": "model_129/tf.concat_34/concat", "op": "ConcatV2", "input": ["model_129/tf.strided_slice_28/StridedSlice", "model_129/tf.strided_slice_29/StridedSlice", "model_129/tf.math.multiply_392/Mul", "model_129/tf.concat_34/concat/axis"], "attr": {"N": {"i": "3"}, "T": {"type": "DT_FLOAT"}, "Tidx": {"type": "DT_INT32"}}}, {"name": "model_129/tf.math.add_163/Add", "op": "_FusedConv2D", "input": ["model_129/tf.concat_34/concat", "model_129/tf.nn.convolution_138/convolution/filter", "model_129/tf.math.add_163/Add/y"], "device": "/device:CPU:0", "attr": {"num_host_args": {"i": "0"}, "data_format": {"s": "TkhXQw=="}, "filter_format": {"s": "SFdJTw=="}, "fused_ops": {"list": {"s": ["Qmlhc0FkZA=="]}}, "num_args": {"i": "1"}, "strides": {"list": {"i": ["1", "1", "1", "1"]}}, "TArgs": {"list": {"type": ["DT_FLOAT"]}}, "padding": {"s": "U0FNRQ=="}, "use_cudnn_on_gpu": {"b": true}, "leakyrelu_alpha": {"f": 0.2}, "epsilon": {"f": 0.0}, "T": {"type": "DT_FLOAT"}, "explicit_paddings": {"list": {}}, "dilations": {"list": {"i": ["1", "1", "1", "1"]}}}}, {"name": "model_129/tf.math.sigmoid_90/Sigmoid", "op": "Sigmoid", "input": ["model_129/tf.math.add_163/Add"], "attr": {"T": {"type": "DT_FLOAT"}}}, {"name": "model_129/tf.math.multiply_396/Mul", "op": "Mul", "input": ["model_129/tf.math.add_163/Add", "model_129/tf.math.sigmoid_90/Sigmoid"], "attr": {"T": {"type": "DT_FLOAT"}}}, {"name": "model_129/tf.math.add_165/Add", "op": "_FusedConv2D", "input": ["model_129/tf.math.multiply_396/Mul", "model_129/tf.nn.convolution_140/convolution/filter", "model_129/tf.math.add_165/Add/y"], "device": "/device:CPU:0", "attr": {"num_host_args": {"i": "0"}, "data_format": {"s": "TkhXQw=="}, "filter_format": {"s": "SFdJTw=="}, "strides": {"list": {"i": ["1", "1", "1", "1"]}}, "num_args": {"i": "1"}, "fused_ops": {"list": {"s": ["Qmlhc0FkZA=="]}}, "TArgs": {"list": {"type": ["DT_FLOAT"]}}, "padding": {"s": "U0FNRQ=="}, "use_cudnn_on_gpu": {"b": true}, "leakyrelu_alpha": {"f": 0.2}, "epsilon": {"f": 0.0}, "T": {"type": "DT_FLOAT"}, "explicit_paddings": {"list": {}}, "dilations": {"list": {"i": ["1", "1", "1", "1"]}}}}, {"name": "model_129/tf.math.add_166/Add", "op": "_FusedConv2D", "input": ["model_129/tf.math.multiply_396/Mul", "model_129/tf.nn.convolution_141/convolution/filter", "model_129/tf.math.add_166/Add/y"], "device": "/device:CPU:0", "attr": {"num_host_args": {"i": "0"}, "data_format": {"s": "TkhXQw=="}, "filter_format": {"s": "SFdJTw=="}, "strides": {"list": {"i": ["1", "1", "1", "1"]}}, "num_args": {"i": "1"}, "fused_ops": {"list": {"s": ["Qmlhc0FkZA=="]}}, "TArgs": {"list": {"type": ["DT_FLOAT"]}}, "padding": {"s": "U0FNRQ=="}, "use_cudnn_on_gpu": {"b": true}, "leakyrelu_alpha": {"f": 0.2}, "epsilon": {"f": 0.0}, "T": {"type": "DT_FLOAT"}, "explicit_paddings": {"list": {}}, "dilations": {"list": {"i": ["1", "1", "1", "1"]}}}}, {"name": "model_129/tf.compat.v1.pad_12/Pad", "op": "Pad", "input": ["model_129/tf.math.multiply_396/Mul", "model_129/tf.compat.v1.pad_12/Pad/paddings"], "attr": {"Tpaddings": {"type": "DT_INT32"}, "T": {"type": "DT_FLOAT"}}}, {"name": "model_129/tf.math.sigmoid_92/Sigmoid", "op": "Sigmoid", "input": ["model_129/tf.math.add_165/Add"], "attr": {"T": {"type": "DT_FLOAT"}}}, {"name": "model_129/tf.math.sigmoid_93/Sigmoid", "op": "Sigmoid", "input": ["model_129/tf.math.add_166/Add"], "attr": {"T": {"type": "DT_FLOAT"}}}, {"name": "model_129/tf.math.add_164/Add", "op": "_FusedConv2D", "input": ["model_129/tf.compat.v1.pad_12/Pad", "model_129/tf.nn.convolution_139/convolution/filter", "model_129/tf.math.add_164/Add/y"], "device": "/device:CPU:0", "attr": {"num_host_args": {"i": "0"}, "data_format": {"s": "TkhXQw=="}, "filter_format": {"s": "SFdJTw=="}, "strides": {"list": {"i": ["1", "2", "2", "1"]}}, "num_args": {"i": "1"}, "fused_ops": {"list": {"s": ["Qmlhc0FkZA=="]}}, "TArgs": {"list": {"type": ["DT_FLOAT"]}}, "padding": {"s": "VkFMSUQ="}, "use_cudnn_on_gpu": {"b": true}, "leakyrelu_alpha": {"f": 0.2}, "epsilon": {"f": 0.0}, "T": {"type": "DT_FLOAT"}, "explicit_paddings": {"list": {}}, "dilations": {"list": {"i": ["1", "1", "1", "1"]}}}}, {"name": "model_129/tf.math.multiply_404/Mul", "op": "Mul", "input": ["model_129/tf.math.add_165/Add", "model_129/tf.math.sigmoid_92/Sigmoid"], "attr": {"T": {"type": "DT_FLOAT"}}}, {"name": "model_129/tf.math.multiply_408/Mul", "op": "Mul", "input": ["model_129/tf.math.add_166/Add", "model_129/tf.math.sigmoid_93/Sigmoid"], "attr": {"T": {"type": "DT_FLOAT"}}}, {"name": "model_129/tf.math.sigmoid_91/Sigmoid", "op": "Sigmoid", "input": ["model_129/tf.math.add_164/Add"], "attr": {"T": {"type": "DT_FLOAT"}}}, {"name": "model_129/tf.math.add_167/Add", "op": "_FusedConv2D", "input": ["model_129/tf.math.multiply_404/Mul", "model_129/tf.nn.convolution_142/convolution/filter", "model_129/tf.math.add_167/Add/y"], "device": "/device:CPU:0", "attr": {"num_host_args": {"i": "0"}, "data_format": {"s": "TkhXQw=="}, "filter_format": {"s": "SFdJTw=="}, "strides": {"list": {"i": ["1", "1", "1", "1"]}}, "num_args": {"i": "1"}, "fused_ops": {"list": {"s": ["Qmlhc0FkZA=="]}}, "TArgs": {"list": {"type": ["DT_FLOAT"]}}, "padding": {"s": "U0FNRQ=="}, "use_cudnn_on_gpu": {"b": true}, "leakyrelu_alpha": {"f": 0.2}, "epsilon": {"f": 0.0}, "T": {"type": "DT_FLOAT"}, "explicit_paddings": {"list": {}}, "dilations": {"list": {"i": ["1", "1", "1", "1"]}}}}, {"name": "model_129/tf.math.add_168/Add", "op": "_FusedConv2D", "input": ["model_129/tf.math.multiply_408/Mul", "model_129/tf.nn.convolution_143/convolution/filter", "model_129/tf.math.add_168/Add/y"], "device": "/device:CPU:0", "attr": {"num_host_args": {"i": "0"}, "data_format": {"s": "TkhXQw=="}, "filter_format": {"s": "SFdJTw=="}, "fused_ops": {"list": {"s": ["Qmlhc0FkZA=="]}}, "num_args": {"i": "1"}, "strides": {"list": {"i": ["1", "1", "1", "1"]}}, "TArgs": {"list": {"type": ["DT_FLOAT"]}}, "padding": {"s": "U0FNRQ=="}, "use_cudnn_on_gpu": {"b": true}, "leakyrelu_alpha": {"f": 0.2}, "epsilon": {"f": 0.0}, "T": {"type": "DT_FLOAT"}, "explicit_paddings": {"list": {}}, "dilations": {"list": {"i": ["1", "1", "1", "1"]}}}}, {"name": "model_129/tf.math.multiply_400/Mul", "op": "Mul", "input": ["model_129/tf.math.add_164/Add", "model_129/tf.math.sigmoid_91/Sigmoid"], "attr": {"T": {"type": "DT_FLOAT"}}}, {"name": "model_129/tf.math.sigmoid_94/Sigmoid", "op": "Sigmoid", "input": ["model_129/tf.math.add_167/Add"], "attr": {"T": {"type": "DT_FLOAT"}}}, {"name": "model_129/tf.math.sigmoid_95/Sigmoid", "op": "Sigmoid", "input": ["model_129/tf.math.add_168/Add"], "attr": {"T": {"type": "DT_FLOAT"}}}, {"name": "model_129/tf.concat_37/concat", "op": "ConcatV2", "input": ["model_129/tf.math.multiply_400/Mul", "model_129/tf.math.multiply_380/Mul", "model_129/tf.concat_37/concat/axis"], "attr": {"N": {"i": "2"}, "T": {"type": "DT_FLOAT"}, "Tidx": {"type": "DT_INT32"}}}, {"name": "model_129/tf.math.multiply_412/Mul", "op": "Mul", "input": ["model_129/tf.math.add_167/Add", "model_129/tf.math.sigmoid_94/Sigmoid"], "attr": {"T": {"type": "DT_FLOAT"}}}, {"name": "model_129/tf.math.multiply_416/Mul", "op": "Mul", "input": ["model_129/tf.math.add_168/Add", "model_129/tf.math.sigmoid_95/Sigmoid"], "attr": {"T": {"type": "DT_FLOAT"}}}, {"name": "model_129/tf.math.add_169/Add", "op": "_FusedConv2D", "input": ["model_129/tf.concat_37/concat", "model_129/tf.nn.convolution_144/convolution/filter", "model_129/tf.math.add_169/Add/y"], "device": "/device:CPU:0", "attr": {"num_host_args": {"i": "0"}, "data_format": {"s": "TkhXQw=="}, "filter_format": {"s": "SFdJTw=="}, "strides": {"list": {"i": ["1", "1", "1", "1"]}}, "num_args": {"i": "1"}, "fused_ops": {"list": {"s": ["Qmlhc0FkZA=="]}}, "TArgs": {"list": {"type": ["DT_FLOAT"]}}, "padding": {"s": "U0FNRQ=="}, "use_cudnn_on_gpu": {"b": true}, "leakyrelu_alpha": {"f": 0.2}, "epsilon": {"f": 0.0}, "T": {"type": "DT_FLOAT"}, "explicit_paddings": {"list": {}}, "dilations": {"list": {"i": ["1", "1", "1", "1"]}}}}, {"name": "model_129/tf.math.add_170/Add", "op": "_FusedConv2D", "input": ["model_129/tf.math.multiply_412/Mul", "model_129/tf.nn.convolution_145/convolution/filter", "model_129/tf.math.add_170/Add/y"], "device": "/device:CPU:0", "attr": {"num_host_args": {"i": "0"}, "data_format": {"s": "TkhXQw=="}, "filter_format": {"s": "SFdJTw=="}, "strides": {"list": {"i": ["1", "1", "1", "1"]}}, "num_args": {"i": "1"}, "fused_ops": {"list": {"s": ["Qmlhc0FkZA=="]}}, "TArgs": {"list": {"type": ["DT_FLOAT"]}}, "padding": {"s": "U0FNRQ=="}, "use_cudnn_on_gpu": {"b": true}, "leakyrelu_alpha": {"f": 0.2}, "epsilon": {"f": 0.0}, "T": {"type": "DT_FLOAT"}, "explicit_paddings": {"list": {}}, "dilations": {"list": {"i": ["1", "1", "1", "1"]}}}}, {"name": "model_129/tf.math.add_171/Add", "op": "_FusedConv2D", "input": ["model_129/tf.math.multiply_416/Mul", "model_129/tf.nn.convolution_146/convolution/filter", "model_129/tf.math.add_171/Add/y"], "device": "/device:CPU:0", "attr": {"num_host_args": {"i": "0"}, "data_format": {"s": "TkhXQw=="}, "filter_format": {"s": "SFdJTw=="}, "strides": {"list": {"i": ["1", "1", "1", "1"]}}, "num_args": {"i": "1"}, "fused_ops": {"list": {"s": ["Qmlhc0FkZA=="]}}, "TArgs": {"list": {"type": ["DT_FLOAT"]}}, "padding": {"s": "U0FNRQ=="}, "use_cudnn_on_gpu": {"b": true}, "leakyrelu_alpha": {"f": 0.2}, "epsilon": {"f": 0.0}, "T": {"type": "DT_FLOAT"}, "explicit_paddings": {"list": {}}, "dilations": {"list": {"i": ["1", "1", "1", "1"]}}}}, {"name": "model_129/tf.math.sigmoid_96/Sigmoid", "op": "Sigmoid", "input": ["model_129/tf.math.add_169/Add"], "attr": {"T": {"type": "DT_FLOAT"}}}, {"name": "model_129/tf.compat.v1.transpose_221/transpose", "op": "Transpose", "input": ["model_129/tf.math.add_170/Add", "model_129/tf.compat.v1.transpose_221/transpose/perm"], "attr": {"Tperm": {"type": "DT_INT32"}, "T": {"type": "DT_FLOAT"}}}, {"name": "model_129/tf.compat.v1.transpose_226/transpose", "op": "Transpose", "input": ["model_129/tf.math.add_171/Add", "model_129/tf.compat.v1.transpose_226/transpose/perm"], "attr": {"Tperm": {"type": "DT_INT32"}, "T": {"type": "DT_FLOAT"}}}, {"name": "model_129/tf.math.multiply_420/Mul", "op": "Mul", "input": ["model_129/tf.math.add_169/Add", "model_129/tf.math.sigmoid_96/Sigmoid"], "attr": {"T": {"type": "DT_FLOAT"}}}, {"name": "model_129/tf.reshape_26/Reshape", "op": "Reshape", "input": ["model_129/tf.compat.v1.transpose_221/transpose", "model_129/tf.reshape_26/Reshape/shape"], "attr": {"T": {"type": "DT_FLOAT"}, "Tshape": {"type": "DT_INT32"}}}, {"name": "model_129/tf.reshape_29/Reshape", "op": "Reshape", "input": ["model_129/tf.compat.v1.transpose_226/transpose", "model_129/tf.reshape_29/Reshape/shape"], "attr": {"T": {"type": "DT_FLOAT"}, "Tshape": {"type": "DT_INT32"}}}, {"name": "model_129/tf.strided_slice_30/StridedSlice", "op": "StridedSlice", "input": ["model_129/tf.math.multiply_420/Mul", "model_129/tf.strided_slice_30/ones_like/tensor", "model_129/tf.strided_slice_30/StridedSlice/end", "model_129/tf.strided_slice_30/ones_like"], "attr": {"shrink_axis_mask": {"i": "0"}, "new_axis_mask": {"i": "0"}, "Index": {"type": "DT_INT64"}, "begin_mask": {"i": "15"}, "end_mask": {"i": "7"}, "T": {"type": "DT_FLOAT"}, "ellipsis_mask": {"i": "0"}}}, {"name": "model_129/tf.strided_slice_31/StridedSlice", "op": "StridedSlice", "input": ["model_129/tf.math.multiply_420/Mul", "model_129/tf.strided_slice_31/ones_like/tensor", "model_129/tf.strided_slice_31/StridedSlice/end", "model_129/tf.strided_slice_31/ones_like"], "attr": {"shrink_axis_mask": {"i": "0"}, "new_axis_mask": {"i": "0"}, "Index": {"type": "DT_INT64"}, "begin_mask": {"i": "7"}, "T": {"type": "DT_FLOAT"}, "end_mask": {"i": "7"}, "ellipsis_mask": {"i": "0"}}}, {"name": "model_129/tf.math.add_174/Add", "op": "_FusedConv2D", "input": ["model_129/tf.strided_slice_31/StridedSlice", "model_129/tf.nn.convolution_149/convolution/filter", "model_129/tf.math.add_174/Add/y"], "device": "/device:CPU:0", "attr": {"num_host_args": {"i": "0"}, "data_format": {"s": "TkhXQw=="}, "filter_format": {"s": "SFdJTw=="}, "strides": {"list": {"i": ["1", "1", "1", "1"]}}, "num_args": {"i": "1"}, "fused_ops": {"list": {"s": ["Qmlhc0FkZA=="]}}, "TArgs": {"list": {"type": ["DT_FLOAT"]}}, "padding": {"s": "U0FNRQ=="}, "use_cudnn_on_gpu": {"b": true}, "leakyrelu_alpha": {"f": 0.2}, "epsilon": {"f": 0.0}, "T": {"type": "DT_FLOAT"}, "explicit_paddings": {"list": {}}, "dilations": {"list": {"i": ["1", "1", "1", "1"]}}}}, {"name": "model_129/tf.math.sigmoid_97/Sigmoid", "op": "Sigmoid", "input": ["model_129/tf.math.add_174/Add"], "attr": {"T": {"type": "DT_FLOAT"}}}, {"name": "model_129/tf.math.multiply_424/Mul", "op": "Mul", "input": ["model_129/tf.math.add_174/Add", "model_129/tf.math.sigmoid_97/Sigmoid"], "attr": {"T": {"type": "DT_FLOAT"}}}, {"name": "model_129/tf.math.add_177/Add", "op": "_FusedConv2D", "input": ["model_129/tf.math.multiply_424/Mul", "model_129/tf.nn.convolution_152/convolution/filter", "model_129/tf.math.add_177/Add/y"], "device": "/device:CPU:0", "attr": {"num_host_args": {"i": "0"}, "data_format": {"s": "TkhXQw=="}, "filter_format": {"s": "SFdJTw=="}, "fused_ops": {"list": {"s": ["Qmlhc0FkZA=="]}}, "num_args": {"i": "1"}, "strides": {"list": {"i": ["1", "1", "1", "1"]}}, "TArgs": {"list": {"type": ["DT_FLOAT"]}}, "padding": {"s": "U0FNRQ=="}, "use_cudnn_on_gpu": {"b": true}, "leakyrelu_alpha": {"f": 0.2}, "epsilon": {"f": 0.0}, "T": {"type": "DT_FLOAT"}, "explicit_paddings": {"list": {}}, "dilations": {"list": {"i": ["1", "1", "1", "1"]}}}}, {"name": "model_129/tf.math.sigmoid_98/Sigmoid", "op": "Sigmoid", "input": ["model_129/tf.math.add_177/Add"], "attr": {"T": {"type": "DT_FLOAT"}}}, {"name": "model_129/tf.math.multiply_428/Mul", "op": "Mul", "input": ["model_129/tf.math.add_177/Add", "model_129/tf.math.sigmoid_98/Sigmoid"], "attr": {"T": {"type": "DT_FLOAT"}}}, {"name": "model_129/tf.concat_38/concat", "op": "ConcatV2", "input": ["model_129/tf.strided_slice_30/StridedSlice", "model_129/tf.strided_slice_31/StridedSlice", "model_129/tf.math.multiply_428/Mul", "model_129/tf.concat_38/concat/axis"], "attr": {"N": {"i": "3"}, "Tidx": {"type": "DT_INT32"}, "T": {"type": "DT_FLOAT"}}}, {"name": "model_129/tf.math.add_178/Add", "op": "_FusedConv2D", "input": ["model_129/tf.concat_38/concat", "model_129/tf.nn.convolution_153/convolution/filter", "model_129/tf.math.add_178/Add/y"], "device": "/device:CPU:0", "attr": {"num_host_args": {"i": "0"}, "data_format": {"s": "TkhXQw=="}, "filter_format": {"s": "SFdJTw=="}, "fused_ops": {"list": {"s": ["Qmlhc0FkZA=="]}}, "num_args": {"i": "1"}, "strides": {"list": {"i": ["1", "1", "1", "1"]}}, "TArgs": {"list": {"type": ["DT_FLOAT"]}}, "padding": {"s": "U0FNRQ=="}, "use_cudnn_on_gpu": {"b": true}, "leakyrelu_alpha": {"f": 0.2}, "epsilon": {"f": 0.0}, "T": {"type": "DT_FLOAT"}, "explicit_paddings": {"list": {}}, "dilations": {"list": {"i": ["1", "1", "1", "1"]}}}}, {"name": "model_129/tf.math.sigmoid_99/Sigmoid", "op": "Sigmoid", "input": ["model_129/tf.math.add_178/Add"], "attr": {"T": {"type": "DT_FLOAT"}}}, {"name": "model_129/tf.math.multiply_432/Mul", "op": "Mul", "input": ["model_129/tf.math.add_178/Add", "model_129/tf.math.sigmoid_99/Sigmoid"], "attr": {"T": {"type": "DT_FLOAT"}}}, {"name": "model_129/tf.math.add_180/Add", "op": "_FusedConv2D", "input": ["model_129/tf.math.multiply_432/Mul", "model_129/tf.nn.convolution_155/convolution/filter", "model_129/tf.math.add_180/Add/y"], "device": "/device:CPU:0", "attr": {"num_host_args": {"i": "0"}, "data_format": {"s": "TkhXQw=="}, "filter_format": {"s": "SFdJTw=="}, "strides": {"list": {"i": ["1", "1", "1", "1"]}}, "num_args": {"i": "1"}, "fused_ops": {"list": {"s": ["Qmlhc0FkZA=="]}}, "TArgs": {"list": {"type": ["DT_FLOAT"]}}, "padding": {"s": "U0FNRQ=="}, "use_cudnn_on_gpu": {"b": true}, "leakyrelu_alpha": {"f": 0.2}, "epsilon": {"f": 0.0}, "T": {"type": "DT_FLOAT"}, "explicit_paddings": {"list": {}}, "dilations": {"list": {"i": ["1", "1", "1", "1"]}}}}, {"name": "model_129/tf.math.add_181/Add", "op": "_FusedConv2D", "input": ["model_129/tf.math.multiply_432/Mul", "model_129/tf.nn.convolution_156/convolution/filter", "model_129/tf.math.add_181/Add/y"], "device": "/device:CPU:0", "attr": {"num_host_args": {"i": "0"}, "data_format": {"s": "TkhXQw=="}, "filter_format": {"s": "SFdJTw=="}, "fused_ops": {"list": {"s": ["Qmlhc0FkZA=="]}}, "num_args": {"i": "1"}, "strides": {"list": {"i": ["1", "1", "1", "1"]}}, "TArgs": {"list": {"type": ["DT_FLOAT"]}}, "padding": {"s": "U0FNRQ=="}, "use_cudnn_on_gpu": {"b": true}, "leakyrelu_alpha": {"f": 0.2}, "epsilon": {"f": 0.0}, "T": {"type": "DT_FLOAT"}, "explicit_paddings": {"list": {}}, "dilations": {"list": {"i": ["1", "1", "1", "1"]}}}}, {"name": "model_129/tf.compat.v1.pad_13/Pad", "op": "Pad", "input": ["model_129/tf.math.multiply_432/Mul", "model_129/tf.compat.v1.pad_13/Pad/paddings"], "attr": {"Tpaddings": {"type": "DT_INT32"}, "T": {"type": "DT_FLOAT"}}}, {"name": "model_129/tf.math.sigmoid_101/Sigmoid", "op": "Sigmoid", "input": ["model_129/tf.math.add_180/Add"], "attr": {"T": {"type": "DT_FLOAT"}}}, {"name": "model_129/tf.math.sigmoid_102/Sigmoid", "op": "Sigmoid", "input": ["model_129/tf.math.add_181/Add"], "attr": {"T": {"type": "DT_FLOAT"}}}, {"name": "model_129/tf.math.add_179/Add", "op": "_FusedConv2D", "input": ["model_129/tf.compat.v1.pad_13/Pad", "model_129/tf.nn.convolution_154/convolution/filter", "model_129/tf.math.add_179/Add/y"], "device": "/device:CPU:0", "attr": {"num_host_args": {"i": "0"}, "data_format": {"s": "TkhXQw=="}, "filter_format": {"s": "SFdJTw=="}, "strides": {"list": {"i": ["1", "2", "2", "1"]}}, "num_args": {"i": "1"}, "fused_ops": {"list": {"s": ["Qmlhc0FkZA=="]}}, "TArgs": {"list": {"type": ["DT_FLOAT"]}}, "padding": {"s": "VkFMSUQ="}, "use_cudnn_on_gpu": {"b": true}, "leakyrelu_alpha": {"f": 0.2}, "epsilon": {"f": 0.0}, "T": {"type": "DT_FLOAT"}, "explicit_paddings": {"list": {}}, "dilations": {"list": {"i": ["1", "1", "1", "1"]}}}}, {"name": "model_129/tf.math.multiply_440/Mul", "op": "Mul", "input": ["model_129/tf.math.add_180/Add", "model_129/tf.math.sigmoid_101/Sigmoid"], "attr": {"T": {"type": "DT_FLOAT"}}}, {"name": "model_129/tf.math.multiply_444/Mul", "op": "Mul", "input": ["model_129/tf.math.add_181/Add", "model_129/tf.math.sigmoid_102/Sigmoid"], "attr": {"T": {"type": "DT_FLOAT"}}}, {"name": "model_129/tf.math.sigmoid_100/Sigmoid", "op": "Sigmoid", "input": ["model_129/tf.math.add_179/Add"], "attr": {"T": {"type": "DT_FLOAT"}}}, {"name": "model_129/tf.math.add_184/Add", "op": "_FusedConv2D", "input": ["model_129/tf.math.multiply_440/Mul", "model_129/tf.nn.convolution_159/convolution/filter", "model_129/tf.math.add_184/Add/y"], "device": "/device:CPU:0", "attr": {"num_host_args": {"i": "0"}, "data_format": {"s": "TkhXQw=="}, "filter_format": {"s": "SFdJTw=="}, "fused_ops": {"list": {"s": ["Qmlhc0FkZA=="]}}, "num_args": {"i": "1"}, "strides": {"list": {"i": ["1", "1", "1", "1"]}}, "TArgs": {"list": {"type": ["DT_FLOAT"]}}, "padding": {"s": "U0FNRQ=="}, "use_cudnn_on_gpu": {"b": true}, "leakyrelu_alpha": {"f": 0.2}, "epsilon": {"f": 0.0}, "T": {"type": "DT_FLOAT"}, "explicit_paddings": {"list": {}}, "dilations": {"list": {"i": ["1", "1", "1", "1"]}}}}, {"name": "model_129/tf.math.add_187/Add", "op": "_FusedConv2D", "input": ["model_129/tf.math.multiply_444/Mul", "model_129/tf.nn.convolution_162/convolution/filter", "model_129/tf.math.add_187/Add/y"], "device": "/device:CPU:0", "attr": {"num_host_args": {"i": "0"}, "data_format": {"s": "TkhXQw=="}, "filter_format": {"s": "SFdJTw=="}, "fused_ops": {"list": {"s": ["Qmlhc0FkZA=="]}}, "num_args": {"i": "1"}, "strides": {"list": {"i": ["1", "1", "1", "1"]}}, "TArgs": {"list": {"type": ["DT_FLOAT"]}}, "padding": {"s": "U0FNRQ=="}, "use_cudnn_on_gpu": {"b": true}, "leakyrelu_alpha": {"f": 0.2}, "epsilon": {"f": 0.0}, "T": {"type": "DT_FLOAT"}, "explicit_paddings": {"list": {}}, "dilations": {"list": {"i": ["1", "1", "1", "1"]}}}}, {"name": "model_129/tf.math.multiply_436/Mul", "op": "Mul", "input": ["model_129/tf.math.add_179/Add", "model_129/tf.math.sigmoid_100/Sigmoid"], "attr": {"T": {"type": "DT_FLOAT"}}}, {"name": "model_129/tf.math.sigmoid_103/Sigmoid", "op": "Sigmoid", "input": ["model_129/tf.math.add_184/Add"], "attr": {"T": {"type": "DT_FLOAT"}}}, {"name": "model_129/tf.math.sigmoid_104/Sigmoid", "op": "Sigmoid", "input": ["model_129/tf.math.add_187/Add"], "attr": {"T": {"type": "DT_FLOAT"}}}, {"name": "model_129/tf.concat_39/concat", "op": "ConcatV2", "input": ["model_129/tf.math.multiply_436/Mul", "model_129/tf.math.multiply_364/Mul", "model_129/tf.concat_39/concat/axis"], "attr": {"N": {"i": "2"}, "T": {"type": "DT_FLOAT"}, "Tidx": {"type": "DT_INT32"}}}, {"name": "model_129/tf.math.multiply_448/Mul", "op": "Mul", "input": ["model_129/tf.math.add_184/Add", "model_129/tf.math.sigmoid_103/Sigmoid"], "attr": {"T": {"type": "DT_FLOAT"}}}, {"name": "model_129/tf.math.multiply_452/Mul", "op": "Mul", "input": ["model_129/tf.math.add_187/Add", "model_129/tf.math.sigmoid_104/Sigmoid"], "attr": {"T": {"type": "DT_FLOAT"}}}, {"name": "model_129/tf.math.add_188/Add", "op": "_FusedConv2D", "input": ["model_129/tf.concat_39/concat", "model_129/tf.nn.convolution_163/convolution/filter", "model_129/tf.math.add_188/Add/y"], "device": "/device:CPU:0", "attr": {"num_host_args": {"i": "0"}, "data_format": {"s": "TkhXQw=="}, "filter_format": {"s": "SFdJTw=="}, "fused_ops": {"list": {"s": ["Qmlhc0FkZA=="]}}, "num_args": {"i": "1"}, "strides": {"list": {"i": ["1", "1", "1", "1"]}}, "TArgs": {"list": {"type": ["DT_FLOAT"]}}, "padding": {"s": "U0FNRQ=="}, "use_cudnn_on_gpu": {"b": true}, "leakyrelu_alpha": {"f": 0.2}, "epsilon": {"f": 0.0}, "T": {"type": "DT_FLOAT"}, "explicit_paddings": {"list": {}}, "dilations": {"list": {"i": ["1", "1", "1", "1"]}}}}, {"name": "model_129/tf.math.add_191/Add", "op": "_FusedConv2D", "input": ["model_129/tf.math.multiply_448/Mul", "model_129/tf.nn.convolution_166/convolution/filter", "model_129/tf.math.add_191/Add/y"], "device": "/device:CPU:0", "attr": {"num_host_args": {"i": "0"}, "data_format": {"s": "TkhXQw=="}, "filter_format": {"s": "SFdJTw=="}, "strides": {"list": {"i": ["1", "1", "1", "1"]}}, "num_args": {"i": "1"}, "fused_ops": {"list": {"s": ["Qmlhc0FkZA=="]}}, "TArgs": {"list": {"type": ["DT_FLOAT"]}}, "padding": {"s": "U0FNRQ=="}, "use_cudnn_on_gpu": {"b": true}, "leakyrelu_alpha": {"f": 0.2}, "epsilon": {"f": 0.0}, "T": {"type": "DT_FLOAT"}, "explicit_paddings": {"list": {}}, "dilations": {"list": {"i": ["1", "1", "1", "1"]}}}}, {"name": "model_129/tf.math.add_194/Add", "op": "_FusedConv2D", "input": ["model_129/tf.math.multiply_452/Mul", "model_129/tf.nn.convolution_169/convolution/filter", "model_129/tf.math.add_194/Add/y"], "device": "/device:CPU:0", "attr": {"num_host_args": {"i": "0"}, "data_format": {"s": "TkhXQw=="}, "filter_format": {"s": "SFdJTw=="}, "fused_ops": {"list": {"s": ["Qmlhc0FkZA=="]}}, "num_args": {"i": "1"}, "strides": {"list": {"i": ["1", "1", "1", "1"]}}, "TArgs": {"list": {"type": ["DT_FLOAT"]}}, "padding": {"s": "U0FNRQ=="}, "use_cudnn_on_gpu": {"b": true}, "leakyrelu_alpha": {"f": 0.2}, "epsilon": {"f": 0.0}, "T": {"type": "DT_FLOAT"}, "explicit_paddings": {"list": {}}, "dilations": {"list": {"i": ["1", "1", "1", "1"]}}}}, {"name": "model_129/tf.math.sigmoid_105/Sigmoid", "op": "Sigmoid", "input": ["model_129/tf.math.add_188/Add"], "attr": {"T": {"type": "DT_FLOAT"}}}, {"name": "model_129/tf.compat.v1.transpose_258/transpose", "op": "Transpose", "input": ["model_129/tf.math.add_191/Add", "model_129/tf.compat.v1.transpose_258/transpose/perm"], "attr": {"Tperm": {"type": "DT_INT32"}, "T": {"type": "DT_FLOAT"}}}, {"name": "model_129/tf.compat.v1.transpose_263/transpose", "op": "Transpose", "input": ["model_129/tf.math.add_194/Add", "model_129/tf.compat.v1.transpose_263/transpose/perm"], "attr": {"Tperm": {"type": "DT_INT32"}, "T": {"type": "DT_FLOAT"}}}, {"name": "model_129/tf.math.multiply_456/Mul", "op": "Mul", "input": ["model_129/tf.math.add_188/Add", "model_129/tf.math.sigmoid_105/Sigmoid"], "attr": {"T": {"type": "DT_FLOAT"}}}, {"name": "model_129/tf.reshape_32/Reshape", "op": "Reshape", "input": ["model_129/tf.compat.v1.transpose_258/transpose", "model_129/tf.reshape_32/Reshape/shape"], "attr": {"T": {"type": "DT_FLOAT"}, "Tshape": {"type": "DT_INT32"}}}, {"name": "model_129/tf.reshape_35/Reshape", "op": "Reshape", "input": ["model_129/tf.compat.v1.transpose_263/transpose", "model_129/tf.reshape_35/Reshape/shape"], "attr": {"T": {"type": "DT_FLOAT"}, "Tshape": {"type": "DT_INT32"}}}, {"name": "model_129/tf.strided_slice_32/StridedSlice", "op": "StridedSlice", "input": ["model_129/tf.math.multiply_456/Mul", "model_129/tf.strided_slice_32/ones_like/tensor", "model_129/tf.strided_slice_32/StridedSlice/end", "model_129/tf.strided_slice_32/ones_like"], "attr": {"shrink_axis_mask": {"i": "0"}, "Index": {"type": "DT_INT64"}, "new_axis_mask": {"i": "0"}, "begin_mask": {"i": "15"}, "end_mask": {"i": "7"}, "T": {"type": "DT_FLOAT"}, "ellipsis_mask": {"i": "0"}}}, {"name": "model_129/tf.strided_slice_33/StridedSlice", "op": "StridedSlice", "input": ["model_129/tf.math.multiply_456/Mul", "model_129/tf.strided_slice_33/ones_like/tensor", "model_129/tf.strided_slice_33/StridedSlice/end", "model_129/tf.strided_slice_33/ones_like"], "attr": {"shrink_axis_mask": {"i": "0"}, "new_axis_mask": {"i": "0"}, "Index": {"type": "DT_INT64"}, "begin_mask": {"i": "7"}, "T": {"type": "DT_FLOAT"}, "end_mask": {"i": "7"}, "ellipsis_mask": {"i": "0"}}}, {"name": "model_129/tf.math.add_195/Add", "op": "_FusedConv2D", "input": ["model_129/tf.strided_slice_33/StridedSlice", "model_129/tf.nn.convolution_170/convolution/filter", "model_129/tf.math.add_195/Add/y"], "device": "/device:CPU:0", "attr": {"num_host_args": {"i": "0"}, "data_format": {"s": "TkhXQw=="}, "filter_format": {"s": "SFdJTw=="}, "strides": {"list": {"i": ["1", "1", "1", "1"]}}, "num_args": {"i": "1"}, "fused_ops": {"list": {"s": ["Qmlhc0FkZA=="]}}, "TArgs": {"list": {"type": ["DT_FLOAT"]}}, "padding": {"s": "U0FNRQ=="}, "use_cudnn_on_gpu": {"b": true}, "leakyrelu_alpha": {"f": 0.2}, "epsilon": {"f": 0.0}, "T": {"type": "DT_FLOAT"}, "explicit_paddings": {"list": {}}, "dilations": {"list": {"i": ["1", "1", "1", "1"]}}}}, {"name": "model_129/tf.math.sigmoid_106/Sigmoid", "op": "Sigmoid", "input": ["model_129/tf.math.add_195/Add"], "attr": {"T": {"type": "DT_FLOAT"}}}, {"name": "model_129/tf.math.multiply_460/Mul", "op": "Mul", "input": ["model_129/tf.math.add_195/Add", "model_129/tf.math.sigmoid_106/Sigmoid"], "attr": {"T": {"type": "DT_FLOAT"}}}, {"name": "model_129/tf.math.add_196/Add", "op": "_FusedConv2D", "input": ["model_129/tf.math.multiply_460/Mul", "model_129/tf.nn.convolution_171/convolution/filter", "model_129/tf.math.add_196/Add/y"], "device": "/device:CPU:0", "attr": {"num_host_args": {"i": "0"}, "data_format": {"s": "TkhXQw=="}, "filter_format": {"s": "SFdJTw=="}, "fused_ops": {"list": {"s": ["Qmlhc0FkZA=="]}}, "num_args": {"i": "1"}, "strides": {"list": {"i": ["1", "1", "1", "1"]}}, "TArgs": {"list": {"type": ["DT_FLOAT"]}}, "padding": {"s": "U0FNRQ=="}, "use_cudnn_on_gpu": {"b": true}, "leakyrelu_alpha": {"f": 0.2}, "epsilon": {"f": 0.0}, "T": {"type": "DT_FLOAT"}, "explicit_paddings": {"list": {}}, "dilations": {"list": {"i": ["1", "1", "1", "1"]}}}}, {"name": "model_129/tf.math.sigmoid_107/Sigmoid", "op": "Sigmoid", "input": ["model_129/tf.math.add_196/Add"], "attr": {"T": {"type": "DT_FLOAT"}}}, {"name": "model_129/tf.math.multiply_464/Mul", "op": "Mul", "input": ["model_129/tf.math.add_196/Add", "model_129/tf.math.sigmoid_107/Sigmoid"], "attr": {"T": {"type": "DT_FLOAT"}}}, {"name": "model_129/tf.concat_40/concat", "op": "ConcatV2", "input": ["model_129/tf.strided_slice_32/StridedSlice", "model_129/tf.strided_slice_33/StridedSlice", "model_129/tf.math.multiply_464/Mul", "model_129/tf.concat_40/concat/axis"], "attr": {"N": {"i": "3"}, "Tidx": {"type": "DT_INT32"}, "T": {"type": "DT_FLOAT"}}}, {"name": "model_129/tf.math.add_197/Add", "op": "_FusedConv2D", "input": ["model_129/tf.concat_40/concat", "model_129/tf.nn.convolution_172/convolution/filter", "model_129/tf.math.add_197/Add/y"], "device": "/device:CPU:0", "attr": {"num_host_args": {"i": "0"}, "data_format": {"s": "TkhXQw=="}, "filter_format": {"s": "SFdJTw=="}, "fused_ops": {"list": {"s": ["Qmlhc0FkZA=="]}}, "num_args": {"i": "1"}, "strides": {"list": {"i": ["1", "1", "1", "1"]}}, "TArgs": {"list": {"type": ["DT_FLOAT"]}}, "padding": {"s": "U0FNRQ=="}, "use_cudnn_on_gpu": {"b": true}, "leakyrelu_alpha": {"f": 0.2}, "epsilon": {"f": 0.0}, "T": {"type": "DT_FLOAT"}, "explicit_paddings": {"list": {}}, "dilations": {"list": {"i": ["1", "1", "1", "1"]}}}}, {"name": "model_129/tf.math.sigmoid_108/Sigmoid", "op": "Sigmoid", "input": ["model_129/tf.math.add_197/Add"], "attr": {"T": {"type": "DT_FLOAT"}}}, {"name": "model_129/tf.math.multiply_468/Mul", "op": "Mul", "input": ["model_129/tf.math.add_197/Add", "model_129/tf.math.sigmoid_108/Sigmoid"], "attr": {"T": {"type": "DT_FLOAT"}}}, {"name": "model_129/tf.math.add_198/Add", "op": "_FusedConv2D", "input": ["model_129/tf.math.multiply_468/Mul", "model_129/tf.nn.convolution_173/convolution/filter", "model_129/tf.math.add_198/Add/y"], "device": "/device:CPU:0", "attr": {"num_host_args": {"i": "0"}, "data_format": {"s": "TkhXQw=="}, "filter_format": {"s": "SFdJTw=="}, "fused_ops": {"list": {"s": ["Qmlhc0FkZA=="]}}, "num_args": {"i": "1"}, "strides": {"list": {"i": ["1", "1", "1", "1"]}}, "TArgs": {"list": {"type": ["DT_FLOAT"]}}, "padding": {"s": "U0FNRQ=="}, "use_cudnn_on_gpu": {"b": true}, "leakyrelu_alpha": {"f": 0.2}, "epsilon": {"f": 0.0}, "T": {"type": "DT_FLOAT"}, "explicit_paddings": {"list": {}}, "dilations": {"list": {"i": ["1", "1", "1", "1"]}}}}, {"name": "model_129/tf.math.add_199/Add", "op": "_FusedConv2D", "input": ["model_129/tf.math.multiply_468/Mul", "model_129/tf.nn.convolution_174/convolution/filter", "model_129/tf.math.add_199/Add/y"], "device": "/device:CPU:0", "attr": {"num_host_args": {"i": "0"}, "data_format": {"s": "TkhXQw=="}, "filter_format": {"s": "SFdJTw=="}, "fused_ops": {"list": {"s": ["Qmlhc0FkZA=="]}}, "num_args": {"i": "1"}, "strides": {"list": {"i": ["1", "1", "1", "1"]}}, "TArgs": {"list": {"type": ["DT_FLOAT"]}}, "padding": {"s": "U0FNRQ=="}, "use_cudnn_on_gpu": {"b": true}, "leakyrelu_alpha": {"f": 0.2}, "epsilon": {"f": 0.0}, "T": {"type": "DT_FLOAT"}, "explicit_paddings": {"list": {}}, "dilations": {"list": {"i": ["1", "1", "1", "1"]}}}}, {"name": "model_129/tf.math.sigmoid_109/Sigmoid", "op": "Sigmoid", "input": ["model_129/tf.math.add_198/Add"], "attr": {"T": {"type": "DT_FLOAT"}}}, {"name": "model_129/tf.math.sigmoid_110/Sigmoid", "op": "Sigmoid", "input": ["model_129/tf.math.add_199/Add"], "attr": {"T": {"type": "DT_FLOAT"}}}, {"name": "model_129/tf.math.multiply_472/Mul", "op": "Mul", "input": ["model_129/tf.math.add_198/Add", "model_129/tf.math.sigmoid_109/Sigmoid"], "attr": {"T": {"type": "DT_FLOAT"}}}, {"name": "model_129/tf.math.multiply_476/Mul", "op": "Mul", "input": ["model_129/tf.math.add_199/Add", "model_129/tf.math.sigmoid_110/Sigmoid"], "attr": {"T": {"type": "DT_FLOAT"}}}, {"name": "model_129/tf.math.add_200/Add", "op": "_FusedConv2D", "input": ["model_129/tf.math.multiply_472/Mul", "model_129/tf.nn.convolution_175/convolution/filter", "model_129/tf.math.add_200/Add/y"], "device": "/device:CPU:0", "attr": {"num_host_args": {"i": "0"}, "data_format": {"s": "TkhXQw=="}, "filter_format": {"s": "SFdJTw=="}, "fused_ops": {"list": {"s": ["Qmlhc0FkZA=="]}}, "num_args": {"i": "1"}, "strides": {"list": {"i": ["1", "1", "1", "1"]}}, "TArgs": {"list": {"type": ["DT_FLOAT"]}}, "padding": {"s": "U0FNRQ=="}, "use_cudnn_on_gpu": {"b": true}, "leakyrelu_alpha": {"f": 0.2}, "epsilon": {"f": 0.0}, "T": {"type": "DT_FLOAT"}, "explicit_paddings": {"list": {}}, "dilations": {"list": {"i": ["1", "1", "1", "1"]}}}}, {"name": "model_129/tf.math.add_201/Add", "op": "_FusedConv2D", "input": ["model_129/tf.math.multiply_476/Mul", "model_129/tf.nn.convolution_176/convolution/filter", "model_129/tf.math.add_201/Add/y"], "device": "/device:CPU:0", "attr": {"num_host_args": {"i": "0"}, "data_format": {"s": "TkhXQw=="}, "filter_format": {"s": "SFdJTw=="}, "fused_ops": {"list": {"s": ["Qmlhc0FkZA=="]}}, "num_args": {"i": "1"}, "strides": {"list": {"i": ["1", "1", "1", "1"]}}, "TArgs": {"list": {"type": ["DT_FLOAT"]}}, "padding": {"s": "U0FNRQ=="}, "use_cudnn_on_gpu": {"b": true}, "leakyrelu_alpha": {"f": 0.2}, "epsilon": {"f": 0.0}, "T": {"type": "DT_FLOAT"}, "explicit_paddings": {"list": {}}, "dilations": {"list": {"i": ["1", "1", "1", "1"]}}}}, {"name": "model_129/tf.math.sigmoid_111/Sigmoid", "op": "Sigmoid", "input": ["model_129/tf.math.add_200/Add"], "attr": {"T": {"type": "DT_FLOAT"}}}, {"name": "model_129/tf.math.sigmoid_112/Sigmoid", "op": "Sigmoid", "input": ["model_129/tf.math.add_201/Add"], "attr": {"T": {"type": "DT_FLOAT"}}}, {"name": "model_129/tf.math.multiply_480/Mul", "op": "Mul", "input": ["model_129/tf.math.add_200/Add", "model_129/tf.math.sigmoid_111/Sigmoid"], "attr": {"T": {"type": "DT_FLOAT"}}}, {"name": "model_129/tf.math.multiply_484/Mul", "op": "Mul", "input": ["model_129/tf.math.add_201/Add", "model_129/tf.math.sigmoid_112/Sigmoid"], "attr": {"T": {"type": "DT_FLOAT"}}}, {"name": "model_129/tf.math.add_202/Add", "op": "_FusedConv2D", "input": ["model_129/tf.math.multiply_480/Mul", "model_129/tf.nn.convolution_177/convolution/filter", "model_129/tf.math.add_202/Add/y"], "device": "/device:CPU:0", "attr": {"num_host_args": {"i": "0"}, "data_format": {"s": "TkhXQw=="}, "filter_format": {"s": "SFdJTw=="}, "strides": {"list": {"i": ["1", "1", "1", "1"]}}, "num_args": {"i": "1"}, "fused_ops": {"list": {"s": ["Qmlhc0FkZA=="]}}, "TArgs": {"list": {"type": ["DT_FLOAT"]}}, "padding": {"s": "U0FNRQ=="}, "use_cudnn_on_gpu": {"b": true}, "leakyrelu_alpha": {"f": 0.2}, "epsilon": {"f": 0.0}, "T": {"type": "DT_FLOAT"}, "explicit_paddings": {"list": {}}, "dilations": {"list": {"i": ["1", "1", "1", "1"]}}}}, {"name": "model_129/tf.math.add_203/Add", "op": "_FusedConv2D", "input": ["model_129/tf.math.multiply_484/Mul", "model_129/tf.nn.convolution_178/convolution/filter", "model_129/tf.math.add_203/Add/y"], "device": "/device:CPU:0", "attr": {"num_host_args": {"i": "0"}, "data_format": {"s": "TkhXQw=="}, "filter_format": {"s": "SFdJTw=="}, "fused_ops": {"list": {"s": ["Qmlhc0FkZA=="]}}, "num_args": {"i": "1"}, "strides": {"list": {"i": ["1", "1", "1", "1"]}}, "TArgs": {"list": {"type": ["DT_FLOAT"]}}, "padding": {"s": "U0FNRQ=="}, "use_cudnn_on_gpu": {"b": true}, "leakyrelu_alpha": {"f": 0.2}, "epsilon": {"f": 0.0}, "T": {"type": "DT_FLOAT"}, "explicit_paddings": {"list": {}}, "dilations": {"list": {"i": ["1", "1", "1", "1"]}}}}, {"name": "model_129/tf.compat.v1.transpose_275/transpose", "op": "Transpose", "input": ["model_129/tf.math.add_202/Add", "model_129/tf.compat.v1.transpose_275/transpose/perm"], "attr": {"Tperm": {"type": "DT_INT32"}, "T": {"type": "DT_FLOAT"}}}, {"name": "model_129/tf.compat.v1.transpose_280/transpose", "op": "Transpose", "input": ["model_129/tf.math.add_203/Add", "model_129/tf.compat.v1.transpose_280/transpose/perm"], "attr": {"Tperm": {"type": "DT_INT32"}, "T": {"type": "DT_FLOAT"}}}, {"name": "model_129/tf.reshape_38/Reshape", "op": "Reshape", "input": ["model_129/tf.compat.v1.transpose_275/transpose", "model_129/tf.reshape_38/Reshape/shape"], "attr": {"T": {"type": "DT_FLOAT"}, "Tshape": {"type": "DT_INT32"}}}, {"name": "model_129/tf.reshape_41/Reshape", "op": "Reshape", "input": ["model_129/tf.compat.v1.transpose_280/transpose", "model_129/tf.reshape_41/Reshape/shape"], "attr": {"T": {"type": "DT_FLOAT"}, "Tshape": {"type": "DT_INT32"}}}, {"name": "model_129/tf.concat_41/concat", "op": "ConcatV2", "input": ["model_129/tf.reshape_26/Reshape", "model_129/tf.reshape_32/Reshape", "model_129/tf.reshape_38/Reshape", "model_129/tf.concat_41/concat/axis"], "attr": {"N": {"i": "3"}, "T": {"type": "DT_FLOAT"}, "Tidx": {"type": "DT_INT32"}}}, {"name": "model_129/tf.concat_42/concat", "op": "ConcatV2", "input": ["model_129/tf.reshape_29/Reshape", "model_129/tf.reshape_35/Reshape", "model_129/tf.reshape_41/Reshape", "model_129/tf.concat_42/concat/axis"], "attr": {"N": {"i": "3"}, "Tidx": {"type": "DT_INT32"}, "T": {"type": "DT_FLOAT"}}}, {"name": "model_129/tf.reshape_44/Reshape", "op": "Reshape", "input": ["model_129/tf.concat_41/concat", "model_129/tf.reshape_44/Reshape/shape"], "attr": {"T": {"type": "DT_FLOAT"}, "Tshape": {"type": "DT_INT32"}}}, {"name": "model_129/tf.math.sigmoid_113/Sigmoid", "op": "Sigmoid", "input": ["model_129/tf.concat_42/concat"], "attr": {"T": {"type": "DT_FLOAT"}}}, {"name": "model_129/tf.compat.v1.transpose_287/transpose", "op": "Transpose", "input": ["model_129/tf.reshape_44/Reshape", "model_129/tf.compat.v1.transpose_287/transpose/perm"], "attr": {"Tperm": {"type": "DT_INT32"}, "T": {"type": "DT_FLOAT"}}}, {"name": "model_129/tf.compat.v1.transpose_288/transpose", "op": "Transpose", "input": ["model_129/tf.compat.v1.transpose_287/transpose", "model_129/tf.compat.v1.transpose_288/transpose/perm"], "attr": {"Tperm": {"type": "DT_INT32"}, "T": {"type": "DT_FLOAT"}}}, {"name": "model_129/tf.nn.softmax_1/wa/model.22/dfl/Softmax", "op": "Softmax", "input": ["model_129/tf.compat.v1.transpose_288/transpose"], "attr": {"T": {"type": "DT_FLOAT"}}}, {"name": "model_129/tf.nn.convolution_179/convolution", "op": "Conv2D", "input": ["model_129/tf.nn.softmax_1/wa/model.22/dfl/Softmax", "model_129/tf.nn.convolution_179/convolution/filter"], "device": "/device:CPU:0", "attr": {"padding": {"s": "U0FNRQ=="}, "data_format": {"s": "TkhXQw=="}, "use_cudnn_on_gpu": {"b": true}, "strides": {"list": {"i": ["1", "1", "1", "1"]}}, "T": {"type": "DT_FLOAT"}, "explicit_paddings": {"list": {}}, "dilations": {"list": {"i": ["1", "1", "1", "1"]}}}}, {"name": "model_129/tf.compat.v1.transpose_293/transpose", "op": "Transpose", "input": ["model_129/tf.nn.convolution_179/convolution", "model_129/tf.compat.v1.transpose_293/transpose/perm"], "attr": {"Tperm": {"type": "DT_INT32"}, "T": {"type": "DT_FLOAT"}}}, {"name": "model_129/tf.reshape_47/Reshape", "op": "Reshape", "input": ["model_129/tf.compat.v1.transpose_293/transpose", "model_129/tf.reshape_47/Reshape/shape"], "attr": {"T": {"type": "DT_FLOAT"}, "Tshape": {"type": "DT_INT32"}}}, {"name": "model_129/tf.strided_slice_35/StridedSlice", "op": "StridedSlice", "input": ["model_129/tf.reshape_47/Reshape", "model_129/tf.strided_slice_35/ones_like/tensor", "model_129/tf.strided_slice_35/StridedSlice/end", "model_129/tf.strided_slice_35/ones_like"], "attr": {"shrink_axis_mask": {"i": "0"}, "new_axis_mask": {"i": "0"}, "Index": {"type": "DT_INT64"}, "begin_mask": {"i": "5"}, "T": {"type": "DT_FLOAT"}, "end_mask": {"i": "5"}, "ellipsis_mask": {"i": "0"}}}, {"name": "model_129/tf.strided_slice_34/StridedSlice", "op": "StridedSlice", "input": ["model_129/tf.reshape_47/Reshape", "model_129/tf.strided_slice_34/ones_like/tensor", "model_129/tf.strided_slice_34/StridedSlice/end", "model_129/tf.strided_slice_34/ones_like"], "attr": {"shrink_axis_mask": {"i": "0"}, "Index": {"type": "DT_INT64"}, "new_axis_mask": {"i": "0"}, "begin_mask": {"i": "7"}, "end_mask": {"i": "5"}, "T": {"type": "DT_FLOAT"}, "ellipsis_mask": {"i": "0"}}}, {"name": "model_129/tf.math.add_204/Add", "op": "AddV2", "input": ["model_129/tf.strided_slice_35/StridedSlice", "model_129/tf.math.add_204/Add/y"], "attr": {"T": {"type": "DT_FLOAT"}}}, {"name": "model_129/tf.math.subtract_2/Sub", "op": "Sub", "input": ["model_129/49248", "model_129/tf.strided_slice_34/StridedSlice"], "attr": {"T": {"type": "DT_FLOAT"}}}, {"name": "model_129/tf.math.add_205/Add", "op": "AddV2", "input": ["model_129/tf.math.subtract_2/Sub", "model_129/tf.math.add_204/Add"], "attr": {"T": {"type": "DT_FLOAT"}}}, {"name": "model_129/tf.math.subtract_3/Sub", "op": "Sub", "input": ["model_129/tf.math.add_204/Add", "model_129/tf.math.subtract_2/Sub"], "attr": {"T": {"type": "DT_FLOAT"}}}, {"name": "model_129/tf.math.divide_1/truediv", "op": "Mul", "input": ["model_129/tf.math.add_205/Add", "ConstantFolding/model_129/tf.math.divide_1/truediv_recip"], "attr": {"T": {"type": "DT_FLOAT"}}}, {"name": "model_129/tf.concat_46/concat", "op": "ConcatV2", "input": ["model_129/tf.math.divide_1/truediv", "model_129/tf.math.subtract_3/Sub", "model_129/tf.concat_46/concat/axis"], "attr": {"N": {"i": "2"}, "Tidx": {"type": "DT_INT32"}, "T": {"type": "DT_FLOAT"}}}, {"name": "model_129/tf.math.multiply_497/Mul", "op": "Mul", "input": ["model_129/tf.concat_46/concat", "model_129/tf.math.multiply_497/Mul/y"], "attr": {"T": {"type": "DT_FLOAT"}}}, {"name": "model_129/output0/concat", "op": "ConcatV2", "input": ["model_129/tf.math.multiply_497/Mul", "model_129/tf.math.sigmoid_113/Sigmoid", "model_129/output0/concat/axis"], "attr": {"N": {"i": "2"}, "Tidx": {"type": "DT_INT32"}, "T": {"type": "DT_FLOAT"}}}, {"name": "Identity", "op": "Identity", "input": ["model_129/output0/concat"], "attr": {"T": {"type": "DT_FLOAT"}}}], "library": {}, "versions": {"producer": 2129}}, "weightsManifest": [{"paths": ["group1-shard1of3.bin", "group1-shard2of3.bin", "group1-shard3of3.bin"], "weights": [{"name": "ConstantFolding/model_129/tf.math.divide_1/truediv_recip", "shape": [], "dtype": "float32"}, {"name": "model_129/tf.strided_slice_35/ones_like/tensor", "shape": [3], "dtype": "int32"}, {"name": "model_129/tf.strided_slice_35/StridedSlice/end", "shape": [3], "dtype": "int32"}, {"name": "model_129/tf.strided_slice_35/ones_like", "shape": [3], "dtype": "int32"}, {"name": "model_129/tf.math.add_204/Add/y", "shape": [1, 2, 21504], "dtype": "float32"}, {"name": "model_129/49248", "shape": [1, 2, 21504], "dtype": "float32"}, {"name": "model_129/tf.nn.convolution_140/convolution/filter", "shape": [3, 3, 64, 64], "dtype": "float32"}, {"name": "model_129/tf.math.add_165/Add/y", "shape": [64], "dtype": "float32"}, {"name": "model_129/tf.nn.convolution_142/convolution/filter", "shape": [3, 3, 64, 64], "dtype": "float32"}, {"name": "model_129/tf.math.add_167/Add/y", "shape": [64], "dtype": "float32"}, {"name": "model_129/tf.nn.convolution_145/convolution/filter", "shape": [1, 1, 64, 64], "dtype": "float32"}, {"name": "model_129/tf.math.add_170/Add/y", "shape": [64], "dtype": "float32"}, {"name": "model_129/tf.compat.v1.transpose_221/transpose/perm", "shape": [4], "dtype": "int32"}, {"name": "model_129/tf.reshape_26/Reshape/shape", "shape": [3], "dtype": "int32"}, {"name": "model_129/tf.nn.convolution_155/convolution/filter", "shape": [3, 3, 128, 64], "dtype": "float32"}, {"name": "model_129/tf.math.add_180/Add/y", "shape": [64], "dtype": "float32"}, {"name": "model_129/tf.nn.convolution_159/convolution/filter", "shape": [3, 3, 64, 64], "dtype": "float32"}, {"name": "model_129/tf.math.add_184/Add/y", "shape": [64], "dtype": "float32"}, {"name": "model_129/tf.nn.convolution_166/convolution/filter", "shape": [1, 1, 64, 64], "dtype": "float32"}, {"name": "model_129/tf.math.add_191/Add/y", "shape": [64], "dtype": "float32"}, {"name": "model_129/tf.compat.v1.transpose_258/transpose/perm", "shape": [4], "dtype": "int32"}, {"name": "model_129/tf.reshape_32/Reshape/shape", "shape": [3], "dtype": "int32"}, {"name": "model_129/tf.nn.convolution_173/convolution/filter", "shape": [3, 3, 256, 64], "dtype": "float32"}, {"name": "model_129/tf.math.add_198/Add/y", "shape": [64], "dtype": "float32"}, {"name": "model_129/tf.nn.convolution_175/convolution/filter", "shape": [3, 3, 64, 64], "dtype": "float32"}, {"name": "model_129/tf.math.add_200/Add/y", "shape": [64], "dtype": "float32"}, {"name": "model_129/tf.nn.convolution_177/convolution/filter", "shape": [1, 1, 64, 64], "dtype": "float32"}, {"name": "model_129/tf.math.add_202/Add/y", "shape": [64], "dtype": "float32"}, {"name": "model_129/tf.compat.v1.transpose_275/transpose/perm", "shape": [4], "dtype": "int32"}, {"name": "model_129/tf.reshape_38/Reshape/shape", "shape": [3], "dtype": "int32"}, {"name": "model_129/tf.concat_41/concat/axis", "shape": [], "dtype": "int32"}, {"name": "model_129/tf.reshape_44/Reshape/shape", "shape": [4], "dtype": "int32"}, {"name": "model_129/tf.compat.v1.transpose_287/transpose/perm", "shape": [4], "dtype": "int32"}, {"name": "model_129/tf.compat.v1.transpose_288/transpose/perm", "shape": [4], "dtype": "int32"}, {"name": "model_129/tf.nn.convolution_179/convolution/filter", "shape": [1, 1, 16, 1], "dtype": "float32"}, {"name": "model_129/tf.compat.v1.transpose_293/transpose/perm", "shape": [4], "dtype": "int32"}, {"name": "model_129/tf.reshape_47/Reshape/shape", "shape": [3], "dtype": "int32"}, {"name": "model_129/tf.strided_slice_34/ones_like/tensor", "shape": [3], "dtype": "int32"}, {"name": "model_129/tf.strided_slice_34/StridedSlice/end", "shape": [3], "dtype": "int32"}, {"name": "model_129/tf.strided_slice_34/ones_like", "shape": [3], "dtype": "int32"}, {"name": "model_129/tf.concat_46/concat/axis", "shape": [], "dtype": "int32"}, {"name": "model_129/tf.math.multiply_497/Mul/y", "shape": [1, 1, 21504], "dtype": "float32"}, {"name": "model_129/tf.nn.convolution_141/convolution/filter", "shape": [3, 3, 64, 64], "dtype": "float32"}, {"name": "model_129/tf.math.add_166/Add/y", "shape": [64], "dtype": "float32"}, {"name": "model_129/tf.nn.convolution_143/convolution/filter", "shape": [3, 3, 64, 64], "dtype": "float32"}, {"name": "model_129/tf.math.add_168/Add/y", "shape": [64], "dtype": "float32"}, {"name": "model_129/tf.nn.convolution_146/convolution/filter", "shape": [1, 1, 64, 9], "dtype": "float32"}, {"name": "model_129/tf.math.add_171/Add/y", "shape": [9], "dtype": "float32"}, {"name": "model_129/tf.compat.v1.transpose_226/transpose/perm", "shape": [4], "dtype": "int32"}, {"name": "model_129/tf.reshape_29/Reshape/shape", "shape": [3], "dtype": "int32"}, {"name": "model_129/tf.nn.convolution_156/convolution/filter", "shape": [3, 3, 128, 64], "dtype": "float32"}, {"name": "model_129/tf.math.add_181/Add/y", "shape": [64], "dtype": "float32"}, {"name": "model_129/tf.nn.convolution_162/convolution/filter", "shape": [3, 3, 64, 64], "dtype": "float32"}, {"name": "model_129/tf.math.add_187/Add/y", "shape": [64], "dtype": "float32"}, {"name": "model_129/tf.nn.convolution_169/convolution/filter", "shape": [1, 1, 64, 9], "dtype": "float32"}, {"name": "model_129/tf.math.add_194/Add/y", "shape": [9], "dtype": "float32"}, {"name": "model_129/tf.compat.v1.transpose_263/transpose/perm", "shape": [4], "dtype": "int32"}, {"name": "model_129/tf.reshape_35/Reshape/shape", "shape": [3], "dtype": "int32"}, {"name": "model_129/tf.strided_slice_32/ones_like/tensor", "shape": [4], "dtype": "int32"}, {"name": "model_129/tf.strided_slice_32/StridedSlice/end", "shape": [4], "dtype": "int32"}, {"name": "model_129/tf.strided_slice_32/ones_like", "shape": [4], "dtype": "int32"}, {"name": "model_129/tf.strided_slice_30/ones_like/tensor", "shape": [4], "dtype": "int32"}, {"name": "model_129/tf.strided_slice_30/StridedSlice/end", "shape": [4], "dtype": "int32"}, {"name": "model_129/tf.strided_slice_30/ones_like", "shape": [4], "dtype": "int32"}, {"name": "model_129/tf.strided_slice_28/ones_like/tensor", "shape": [4], "dtype": "int32"}, {"name": "model_129/tf.strided_slice_28/StridedSlice/end", "shape": [4], "dtype": "int32"}, {"name": "model_129/tf.strided_slice_28/ones_like", "shape": [4], "dtype": "int32"}, {"name": "model_129/tf.image.resize_3/resize/size", "shape": [2], "dtype": "int32"}, {"name": "model_129/tf.concat_33/concat/axis", "shape": [], "dtype": "int32"}, {"name": "model_129/tf.nn.convolution_135/convolution/filter", "shape": [1, 1, 192, 64], "dtype": "float32"}, {"name": "model_129/tf.math.add_160/Add/y", "shape": [64], "dtype": "float32"}, {"name": "model_129/tf.strided_slice_29/ones_like/tensor", "shape": [4], "dtype": "int32"}, {"name": "model_129/tf.strided_slice_29/StridedSlice/end", "shape": [4], "dtype": "int32"}, {"name": "model_129/tf.strided_slice_29/ones_like", "shape": [4], "dtype": "int32"}, {"name": "model_129/tf.nn.convolution_136/convolution/filter", "shape": [3, 3, 32, 32], "dtype": "float32"}, {"name": "model_129/tf.math.add_161/Add/y", "shape": [32], "dtype": "float32"}, {"name": "model_129/tf.nn.convolution_137/convolution/filter", "shape": [3, 3, 32, 32], "dtype": "float32"}, {"name": "model_129/tf.math.add_162/Add/y", "shape": [32], "dtype": "float32"}, {"name": "model_129/tf.concat_34/concat/axis", "shape": [], "dtype": "int32"}, {"name": "model_129/tf.nn.convolution_138/convolution/filter", "shape": [1, 1, 96, 64], "dtype": "float32"}, {"name": "model_129/tf.math.add_163/Add/y", "shape": [64], "dtype": "float32"}, {"name": "model_129/tf.compat.v1.pad_12/Pad/paddings", "shape": [4, 2], "dtype": "int32"}, {"name": "model_129/tf.nn.convolution_139/convolution/filter", "shape": [3, 3, 64, 64], "dtype": "float32"}, {"name": "model_129/tf.math.add_164/Add/y", "shape": [64], "dtype": "float32"}, {"name": "model_129/tf.strided_slice_26/ones_like/tensor", "shape": [4], "dtype": "int32"}, {"name": "model_129/tf.strided_slice_26/StridedSlice/end", "shape": [4], "dtype": "int32"}, {"name": "model_129/tf.strided_slice_26/ones_like", "shape": [4], "dtype": "int32"}, {"name": "model_129/tf.image.resize_2/resize/size", "shape": [2], "dtype": "int32"}, {"name": "model_129/tf.concat_29/concat/axis", "shape": [], "dtype": "int32"}, {"name": "model_129/tf.nn.convolution_127/convolution/filter", "shape": [1, 1, 384, 128], "dtype": "float32"}, {"name": "model_129/tf.math.add_152/Add/y", "shape": [128], "dtype": "float32"}, {"name": "model_129/tf.strided_slice_27/ones_like/tensor", "shape": [4], "dtype": "int32"}, {"name": "model_129/tf.strided_slice_27/StridedSlice/end", "shape": [4], "dtype": "int32"}, {"name": "model_129/tf.strided_slice_27/ones_like", "shape": [4], "dtype": "int32"}, {"name": "model_129/tf.nn.convolution_130/convolution/filter", "shape": [3, 3, 64, 64], "dtype": "float32"}, {"name": "model_129/tf.math.add_155/Add/y", "shape": [64], "dtype": "float32"}, {"name": "model_129/tf.nn.convolution_133/convolution/filter", "shape": [3, 3, 64, 64], "dtype": "float32"}, {"name": "model_129/tf.math.add_158/Add/y", "shape": [64], "dtype": "float32"}, {"name": "model_129/tf.concat_30/concat/axis", "shape": [], "dtype": "int32"}, {"name": "model_129/tf.nn.convolution_134/convolution/filter", "shape": [1, 1, 192, 128], "dtype": "float32"}, {"name": "model_129/tf.math.add_159/Add/y", "shape": [128], "dtype": "float32"}, {"name": "model_129/tf.concat_37/concat/axis", "shape": [], "dtype": "int32"}, {"name": "model_129/tf.nn.convolution_144/convolution/filter", "shape": [1, 1, 192, 128], "dtype": "float32"}, {"name": "model_129/tf.math.add_169/Add/y", "shape": [128], "dtype": "float32"}, {"name": "model_129/tf.strided_slice_31/ones_like/tensor", "shape": [4], "dtype": "int32"}, {"name": "model_129/tf.strided_slice_31/StridedSlice/end", "shape": [4], "dtype": "int32"}, {"name": "model_129/tf.strided_slice_31/ones_like", "shape": [4], "dtype": "int32"}, {"name": "model_129/tf.nn.convolution_149/convolution/filter", "shape": [3, 3, 64, 64], "dtype": "float32"}, {"name": "model_129/tf.math.add_174/Add/y", "shape": [64], "dtype": "float32"}, {"name": "model_129/tf.nn.convolution_152/convolution/filter", "shape": [3, 3, 64, 64], "dtype": "float32"}, {"name": "model_129/tf.math.add_177/Add/y", "shape": [64], "dtype": "float32"}, {"name": "model_129/tf.concat_38/concat/axis", "shape": [], "dtype": "int32"}, {"name": "model_129/tf.nn.convolution_153/convolution/filter", "shape": [1, 1, 192, 128], "dtype": "float32"}, {"name": "model_129/tf.math.add_178/Add/y", "shape": [128], "dtype": "float32"}, {"name": "model_129/tf.compat.v1.pad_13/Pad/paddings", "shape": [4, 2], "dtype": "int32"}, {"name": "model_129/tf.nn.convolution_154/convolution/filter", "shape": [3, 3, 128, 128], "dtype": "float32"}, {"name": "model_129/tf.math.add_179/Add/y", "shape": [128], "dtype": "float32"}, {"name": "model_129/tf.strided_slice_24/ones_like/tensor", "shape": [4], "dtype": "int32"}, {"name": "model_129/tf.strided_slice_24/StridedSlice/end", "shape": [4], "dtype": "int32"}, {"name": "model_129/tf.strided_slice_24/ones_like", "shape": [4], "dtype": "int32"}, {"name": "model_129/tf.strided_slice_22/ones_like/tensor", "shape": [4], "dtype": "int32"}, {"name": "model_129/tf.strided_slice_22/StridedSlice/end", "shape": [4], "dtype": "int32"}, {"name": "model_129/tf.strided_slice_22/ones_like", "shape": [4], "dtype": "int32"}, {"name": "model_129/tf.strided_slice_20/ones_like/tensor", "shape": [4], "dtype": "int32"}, {"name": "model_129/tf.strided_slice_20/StridedSlice/end", "shape": [4], "dtype": "int32"}, {"name": "model_129/tf.strided_slice_20/ones_like", "shape": [4], "dtype": "int32"}, {"name": "model_129/tf.strided_slice_18/ones_like/tensor", "shape": [4], "dtype": "int32"}, {"name": "model_129/tf.strided_slice_18/StridedSlice/end", "shape": [4], "dtype": "int32"}, {"name": "model_129/tf.strided_slice_18/ones_like", "shape": [4], "dtype": "int32"}, {"name": "model_129/tf.compat.v1.pad_7/Pad/paddings", "shape": [4, 2], "dtype": "int32"}, {"name": "model_129/tf.nn.convolution_90/convolution/filter", "shape": [3, 3, 3, 16], "dtype": "float32"}, {"name": "model_129/tf.math.add_103/Add/y", "shape": [16], "dtype": "float32"}, {"name": "model_129/tf.compat.v1.pad_8/Pad/paddings", "shape": [4, 2], "dtype": "int32"}, {"name": "model_129/tf.nn.convolution_91/convolution/filter", "shape": [3, 3, 16, 32], "dtype": "float32"}, {"name": "model_129/tf.math.add_104/Add/y", "shape": [32], "dtype": "float32"}, {"name": "model_129/tf.nn.convolution_92/convolution/filter", "shape": [1, 1, 32, 32], "dtype": "float32"}, {"name": "model_129/tf.math.add_105/Add/y", "shape": [32], "dtype": "float32"}, {"name": "model_129/tf.strided_slice_19/ones_like/tensor", "shape": [4], "dtype": "int32"}, {"name": "model_129/tf.strided_slice_19/StridedSlice/end", "shape": [4], "dtype": "int32"}, {"name": "model_129/tf.strided_slice_19/ones_like", "shape": [4], "dtype": "int32"}, {"name": "model_129/tf.nn.convolution_93/convolution/filter", "shape": [3, 3, 16, 16], "dtype": "float32"}, {"name": "model_129/tf.math.add_106/Add/y", "shape": [16], "dtype": "float32"}, {"name": "model_129/tf.nn.convolution_94/convolution/filter", "shape": [3, 3, 16, 16], "dtype": "float32"}, {"name": "model_129/tf.math.add_107/Add/y", "shape": [16], "dtype": "float32"}, {"name": "model_129/tf.concat_24/concat/axis", "shape": [], "dtype": "int32"}, {"name": "model_129/tf.nn.convolution_95/convolution/filter", "shape": [1, 1, 48, 32], "dtype": "float32"}, {"name": "model_129/tf.math.add_110/Add/y", "shape": [32], "dtype": "float32"}, {"name": "model_129/tf.compat.v1.pad_9/Pad/paddings", "shape": [4, 2], "dtype": "int32"}, {"name": "model_129/tf.nn.convolution_96/convolution/filter", "shape": [3, 3, 32, 64], "dtype": "float32"}, {"name": "model_129/tf.math.add_111/Add/y", "shape": [64], "dtype": "float32"}, {"name": "model_129/tf.nn.convolution_97/convolution/filter", "shape": [1, 1, 64, 64], "dtype": "float32"}, {"name": "model_129/tf.math.add_112/Add/y", "shape": [64], "dtype": "float32"}, {"name": "model_129/tf.strided_slice_21/ones_like/tensor", "shape": [4], "dtype": "int32"}, {"name": "model_129/tf.strided_slice_21/StridedSlice/end", "shape": [4], "dtype": "int32"}, {"name": "model_129/tf.strided_slice_21/ones_like", "shape": [4], "dtype": "int32"}, {"name": "model_129/tf.nn.convolution_98/convolution/filter", "shape": [3, 3, 32, 32], "dtype": "float32"}, {"name": "model_129/tf.math.add_113/Add/y", "shape": [32], "dtype": "float32"}, {"name": "model_129/tf.nn.convolution_99/convolution/filter", "shape": [3, 3, 32, 32], "dtype": "float32"}, {"name": "model_129/tf.math.add_114/Add/y", "shape": [32], "dtype": "float32"}, {"name": "model_129/tf.nn.convolution_100/convolution/filter", "shape": [3, 3, 32, 32], "dtype": "float32"}, {"name": "model_129/tf.math.add_117/Add/y", "shape": [32], "dtype": "float32"}, {"name": "model_129/tf.nn.convolution_101/convolution/filter", "shape": [3, 3, 32, 32], "dtype": "float32"}, {"name": "model_129/tf.math.add_118/Add/y", "shape": [32], "dtype": "float32"}, {"name": "model_129/tf.concat_25/concat/axis", "shape": [], "dtype": "int32"}, {"name": "model_129/tf.nn.convolution_104/convolution/filter", "shape": [1, 1, 128, 64], "dtype": "float32"}, {"name": "model_129/tf.math.add_123/Add/y", "shape": [64], "dtype": "float32"}, {"name": "model_129/tf.compat.v1.pad_10/Pad/paddings", "shape": [4, 2], "dtype": "int32"}, {"name": "model_129/tf.nn.convolution_105/convolution/filter", "shape": [3, 3, 64, 128], "dtype": "float32"}, {"name": "model_129/tf.math.add_124/Add/y", "shape": [128], "dtype": "float32"}, {"name": "model_129/tf.nn.convolution_106/convolution/filter", "shape": [1, 1, 128, 128], "dtype": "float32"}, {"name": "model_129/tf.math.add_125/Add/y", "shape": [128], "dtype": "float32"}, {"name": "model_129/tf.strided_slice_23/ones_like/tensor", "shape": [4], "dtype": "int32"}, {"name": "model_129/tf.strided_slice_23/StridedSlice/end", "shape": [4], "dtype": "int32"}, {"name": "model_129/tf.strided_slice_23/ones_like", "shape": [4], "dtype": "int32"}, {"name": "model_129/tf.nn.convolution_109/convolution/filter", "shape": [3, 3, 64, 64], "dtype": "float32"}, {"name": "model_129/tf.math.add_128/Add/y", "shape": [64], "dtype": "float32"}, {"name": "model_129/tf.nn.convolution_112/convolution/filter", "shape": [3, 3, 64, 64], "dtype": "float32"}, {"name": "model_129/tf.math.add_131/Add/y", "shape": [64], "dtype": "float32"}, {"name": "model_129/tf.nn.convolution_115/convolution/filter", "shape": [3, 3, 64, 64], "dtype": "float32"}, {"name": "model_129/tf.math.add_136/Add/y", "shape": [64], "dtype": "float32"}, {"name": "model_129/tf.nn.convolution_118/convolution/filter", "shape": [3, 3, 64, 64], "dtype": "float32"}, {"name": "model_129/tf.math.add_139/Add/y", "shape": [64], "dtype": "float32"}, {"name": "model_129/tf.concat_26/concat/axis", "shape": [], "dtype": "int32"}, {"name": "model_129/tf.nn.convolution_119/convolution/filter", "shape": [1, 1, 256, 128], "dtype": "float32"}, {"name": "model_129/tf.math.add_142/Add/y", "shape": [128], "dtype": "float32"}, {"name": "model_129/tf.compat.v1.pad_11/Pad/paddings", "shape": [4, 2], "dtype": "int32"}, {"name": "model_129/tf.nn.convolution_120/convolution/filter", "shape": [3, 3, 128, 256], "dtype": "float32"}, {"name": "model_129/tf.math.add_143/Add/y", "shape": [256], "dtype": "float32"}, {"name": "model_129/tf.nn.convolution_121/convolution/filter", "shape": [1, 1, 256, 256], "dtype": "float32"}, {"name": "model_129/tf.math.add_144/Add/y", "shape": [256], "dtype": "float32"}, {"name": "model_129/tf.strided_slice_25/ones_like/tensor", "shape": [4], "dtype": "int32"}, {"name": "model_129/tf.strided_slice_25/StridedSlice/end", "shape": [4], "dtype": "int32"}, {"name": "model_129/tf.strided_slice_25/ones_like", "shape": [4], "dtype": "int32"}, {"name": "model_129/tf.nn.convolution_122/convolution/filter", "shape": [3, 3, 128, 128], "dtype": "float32"}, {"name": "model_129/tf.math.add_145/Add/y", "shape": [128], "dtype": "float32"}, {"name": "model_129/tf.nn.convolution_123/convolution/filter", "shape": [3, 3, 128, 128], "dtype": "float32"}, {"name": "model_129/tf.math.add_146/Add/y", "shape": [128], "dtype": "float32"}, {"name": "model_129/tf.concat_27/concat/axis", "shape": [], "dtype": "int32"}, {"name": "model_129/tf.nn.convolution_124/convolution/filter", "shape": [1, 1, 384, 256], "dtype": "float32"}, {"name": "model_129/tf.math.add_149/Add/y", "shape": [256], "dtype": "float32"}, {"name": "model_129/tf.nn.convolution_125/convolution/filter", "shape": [1, 1, 256, 128], "dtype": "float32"}, {"name": "model_129/tf.math.add_150/Add/y", "shape": [128], "dtype": "float32"}, {"name": "model_129/tf.concat_28/concat/axis", "shape": [], "dtype": "int32"}, {"name": "model_129/tf.nn.convolution_126/convolution/filter", "shape": [1, 1, 512, 256], "dtype": "float32"}, {"name": "model_129/tf.math.add_151/Add/y", "shape": [256], "dtype": "float32"}, {"name": "model_129/tf.concat_39/concat/axis", "shape": [], "dtype": "int32"}, {"name": "model_129/tf.nn.convolution_163/convolution/filter", "shape": [1, 1, 384, 256], "dtype": "float32"}, {"name": "model_129/tf.math.add_188/Add/y", "shape": [256], "dtype": "float32"}, {"name": "model_129/tf.strided_slice_33/ones_like/tensor", "shape": [4], "dtype": "int32"}, {"name": "model_129/tf.strided_slice_33/StridedSlice/end", "shape": [4], "dtype": "int32"}, {"name": "model_129/tf.strided_slice_33/ones_like", "shape": [4], "dtype": "int32"}, {"name": "model_129/tf.nn.convolution_170/convolution/filter", "shape": [3, 3, 128, 128], "dtype": "float32"}, {"name": "model_129/tf.math.add_195/Add/y", "shape": [128], "dtype": "float32"}, {"name": "model_129/tf.nn.convolution_171/convolution/filter", "shape": [3, 3, 128, 128], "dtype": "float32"}, {"name": "model_129/tf.math.add_196/Add/y", "shape": [128], "dtype": "float32"}, {"name": "model_129/tf.concat_40/concat/axis", "shape": [], "dtype": "int32"}, {"name": "model_129/tf.nn.convolution_172/convolution/filter", "shape": [1, 1, 384, 256], "dtype": "float32"}, {"name": "model_129/tf.math.add_197/Add/y", "shape": [256], "dtype": "float32"}, {"name": "model_129/tf.nn.convolution_174/convolution/filter", "shape": [3, 3, 256, 64], "dtype": "float32"}, {"name": "model_129/tf.math.add_199/Add/y", "shape": [64], "dtype": "float32"}, {"name": "model_129/tf.nn.convolution_176/convolution/filter", "shape": [3, 3, 64, 64], "dtype": "float32"}, {"name": "model_129/tf.math.add_201/Add/y", "shape": [64], "dtype": "float32"}, {"name": "model_129/tf.nn.convolution_178/convolution/filter", "shape": [1, 1, 64, 9], "dtype": "float32"}, {"name": "model_129/tf.math.add_203/Add/y", "shape": [9], "dtype": "float32"}, {"name": "model_129/tf.compat.v1.transpose_280/transpose/perm", "shape": [4], "dtype": "int32"}, {"name": "model_129/tf.reshape_41/Reshape/shape", "shape": [3], "dtype": "int32"}, {"name": "model_129/tf.concat_42/concat/axis", "shape": [], "dtype": "int32"}, {"name": "model_129/output0/concat/axis", "shape": [], "dtype": "int32"}]}]}